checkpoint_critic.pth (torch_old, 83980 bytes, 9 tensors)

fcs1.weight f4 [128, 24]
000000 45 50 8e 40 9c fe 04 41 58 d6 1b be bf 08 de 3f
       4.4472985 8.3121605 -0.15218484 1.7346419
000010 68 01 c4 3f 94 62 e6 3f 94 3d d0 bd 42 45 ce 3f
       1.5312929 1.7998834 -0.10167995 1.6114886
000020 c8 9b 92 40 5a be cd 40 b3 c3 40 3e 70 7c 5e 3f
       4.5815163 6.4294863 0.18824653 0.86908627
000030 24 c2 53 40 83 8a 5c 40 4f 74 bb 3d d1 ef 48 3f
       3.3087244 3.445954 0.091530435 0.7849093
000040 7f f8 57 3e fd 51 d4 3f 1b 29 c4 3c 6c d8 17 bd
       0.21090887 1.6587521 0.023945382 -0.03707163
000050 f7 4e cf 40 7d 22 57 40 bc 8e 5d 3c ff b3 0b 38
       6.4783893 3.36148 0.0135228 3.3307817e-05
000060 a5 cc 06 40 4d 4e 6e 3f 86 da 59 be 13 a1 10 bf
       2.1062405 0.9308823 -0.21274766 -0.5649578
000070 61 62 98 3e f6 4b af bf 9e 2d 00 be 87 8b cc be
       0.29762557 -1.3695056 -0.12517402 -0.399502
000080 9c 17 21 40 ac 51 9e 3f 13 86 a5 be c2 89 86 3d
       2.517066 1.2368674 -0.32328853 0.06569244
000090 ea 59 42 3e 35 be 82 bf 9b 00 94 be 23 f9 36 bd
       0.18979612 -1.0214297 -0.28906712 -0.04467119
0000a0 e8 57 27 40 93 ca a4 3f 54 fb 92 bd 9d 19 81 3e
       2.6147404 1.2874321 -0.07176843 0.25214854
0000b0 60 05 d8 3d 88 24 44 bf 73 af d6 3b d8 bd 54 3e
       0.105479 -0.7661824 0.006551677 0.20775545
0000c0 99 93 44 40 1d a5 9a c0 b2 39 a6 3d 6a 94 44 3f
       3.0715086 -4.8326554 0.08116473 0.7678896
0000d0 23 ed 2a 40 bc aa 66 c0 cc 0f 1f 3e 58 bf 3f 3f
       2.6707237 -3.6041708 0.1553337 0.7490134
0000e0 60 1f 09 40 c2 db 86 c0 54 f1 7a 3f 7c 5d 11 3f
       2.14254 -4.214326 0.9802449 0.5678327
0000f0 d3 5c d5 3f f4 b1 65 c0 0e ca 86 3f 43 14 fc 3e
       1.6668953 -3.5889864 1.0530412 0.49234208
000100 f0 10 15 40 9f d3 92 c0 49 6f 4c bc 86 0a 8d bf
       2.3291588 -4.5883327 -0.012477704 -1.1018836
000110 82 da 1d 40 dc ad dd c0 b8 c0 8c bc 94 39 8f bf
       2.4664617 -6.927473 -0.01718174 -1.1189446
000120 cf bf ea 3f 01 d4 62 ba 2f 7d 38 be cf 94 06 be
       1.8339785 -0.0008652807 -0.18016504 -0.13142703
000130 e3 98 4e c0 c2 13 14 c0 60 91 24 bd c7 86 0f bd
       -3.2280815 -2.313706 -0.040177703 -0.035040643
000140 0b 34 45 40 e5 bb 4b bf f7 11 7a 3c a0 e6 da bd
       3.0813015 -0.7958358 0.015263072 -0.106885195
000150 58 5f 62 c0 15 b3 2e 40 5a 6c 05 3d 2e 32 75 bd
       -3.5370693 2.7296803 0.032574035 -0.05986231
000160 3d b1 c6 40 db 0f 27 c0 53 23 2a 3e 59 82 d6 3d
       6.2091355 -2.6103427 0.16615038 0.104740806
000170 06 fb 4c c0 a7 eb 49 40 51 1c 7c 3d a3 66 ba 3c
       -3.2028213 3.155008 0.061550442 0.02275402
000180 67 1f 16 40 9a a5 56 3f e2 07 4f be f4 09 91 3f
       2.3456666 0.8384644 -0.20217851 1.1331162
000190 cf 50 61 3f 40 2d f6 bf 03 01 28 be b3 cc 9b 3f
       0.8801393 -1.9232559 -0.16406636 1.2171844
0001a0 77 55 08 40 2a f8 8a 3f 8d 17 3f be 45 dd 06 3e
       2.1302164 1.0856984 -0.18661328 0.13170345
0001b0 f2 5d 3d 3f 40 df ca bf 8e 3e b9 bd c5 a7 49 3e
       0.73971474 -1.584938 -0.090451345 0.19692905
0001c0 1f 33 18 40 4a 48 33 3f 7f 5e 82 bd b8 a4 48 3e
       2.3781202 0.7003218 -0.0636568 0.19594085
0001d0 6e 01 bf 3e bf b0 a2 bf 66 e3 9e bb 2a ad 05 3e
       0.37305778 -1.2710189 -0.0048488853 0.13054338
0001e0 89 6a bf 3f 42 17 39 c0 0a 8c cf 3d 20 3e dd 3f
       1.4954387 -2.8920445 0.10134132 1.7284584
0001f0 27 5d b4 3f 06 e5 14 c0 6b d3 6f 3d 38 ba ea 3f
       1.4090928 -2.3264785 0.058551233 1.833808
000200 7b c3 e3 3e db fc 9b c0 aa 68 e8 3d 85 45 24 40
       0.44485077 -4.874616 0.11348088 2.5667431
000210 d1 22 54 bf 35 58 e4 c0 02 51 c7 3d cf 4e 23 40
       -0.82865626 -7.1357675 0.09732248 2.551685
000220 6e c1 52 3a 03 ec 82 c0 d5 ca fb 3f fe 93 ad c0
       0.00080396875 -4.09131 1.9671274 -5.4243155
000230 c3 54 a3 bf 71 bf 31 40 fe b6 f6 3f 84 9c b0 c0
       -1.2760242 2.7773097 1.9274595 -5.519106
000240 45 e7 4c 3f f2 63 ae c0 f7 2f d4 3d b2 78 b8 3e
       0.8004039 -5.4497004 0.10360711 0.36029583
000250 26 04 e5 bd a7 90 81 c0 34 77 16 3e 24 16 94 3e
       -0.11182432 -4.0489078 0.1469391 0.28923142
000260 b2 34 3c bf e8 ea 14 c1 07 cd 51 3f 9a ab 29 40
       -0.73517907 -9.30735 0.8195347 2.6510987
000270 28 23 f0 3e 3c 05 23 c0 80 55 4d 3f ca 1d 2a 40
       0.46901822 -2.5471945 0.8020859 2.6580682
000280 59 08 62 be 75 fd 1f c1 2b 58 5b bf c2 3a ac c0
       -0.22073497 -9.999379 -0.8568141 -5.3821726
000290 e3 9b 34 bf 41 7c 41 be 82 db 81 bf 46 85 af c0
       -0.70550364 -0.18895055 -1.0145113 -5.4850187
0002a0 1e a2 3b 40 4c 39 9c 3f 36 cc e7 3d 5e 92 c8 3e
       2.9317698 1.2204986 0.11318247 0.3917417
0002b0 3f 33 3a bd e3 6c 5d c0 be 77 38 3d 5c 8a e8 3e
       -0.04545903 -3.459771 0.04503607 0.4541806
0002c0 69 f0 5b 40 d8 1b 20 3f 70 4b f3 bd a8 8a b6 3e
       3.4365485 0.62542486 -0.11879623 0.3565266
0002d0 0d d5 e1 3d b7 43 25 c0 80 f5 48 be a3 46 e7 3e
       0.11026964 -2.582258 -0.19624901 0.4517108
0002e0 d1 ca 17 40 7b 5b b7 3f e5 6e c5 bd a8 8a 4b 3d
       2.371754 1.4324793 -0.09640292 0.04969278
0002f0 d4 54 12 3e d1 f1 0f c0 6f 56 78 bd ef 9e 1f 3e
       0.14290172 -2.2491343 -0.060629304 0.15587972
000300 8d 83 f8 3f d0 ca 16 3f f9 87 10 bd 5a 1b f6 3e
       1.9415146 0.5890322 -0.035285924 0.48067743
000310 40 29 cf 3d 11 77 ef bf 03 fc 00 be 40 d9 c4 3e
       0.1011529 -1.8708211 -0.12596135 0.38447
000320 89 75 0b 40 c5 0d 10 3f 91 0d 36 be 9f 47 ce ba
       2.1790488 0.5627101 -0.17778613 -0.0015737897
000330 9d 50 28 3d af db e6 bf fb 58 17 be 78 61 c2 bd
       0.041092504 -1.8035792 -0.14780037 -0.09491247
000340 6c 30 09 40 5b b3 14 3f 3c dc e7 bd 69 2b 7e bc
       2.1435804 0.58086175 -0.11321303 -0.0155132795
000350 15 33 32 bd 7a 4b d5 bf 2c 92 59 bc 8a 2c b0 3d
       -0.043505747 -1.6663659 -0.013279479 0.08602245
000360 35 53 5a 40 c5 2f 0c 40 81 c3 25 be 8a d5 a4 bf
       3.4113286 2.1904156 -0.1618786 -1.2877667
000370 4c a8 ce 3f d6 92 41 c0 bf d9 5c be 66 87 a0 bf
       1.614511 -3.0245872 -0.21567439 -1.254132
000380 e7 0b 83 40 fb 34 d8 3f c0 2d 8c be d5 20 1f 3f
       4.095203 1.6891168 -0.27378654 0.6215947
000390 82 0f b2 3f ba 23 dd bf bd d4 5e be e2 d5 02 3f
       1.3910983 -1.7276528 -0.2176084 0.5110761
0003a0 da b6 9f 40 1b 93 76 3f d3 66 1f be 2d 01 3a 3f
       4.9910707 0.96318215 -0.15566568 0.72658044
0003b0 c5 3a 90 3e 37 1c 96 bf 14 11 17 be 33 ca 30 3f
       0.28169838 -1.172736 -0.14752609 0.6905853
0003c0 2b 33 f2 3f a4 48 a2 be 0b 0c e3 be b7 45 a0 3f
       1.8921865 -0.31696045 -0.44345126 1.2521275
0003d0 fe d7 05 40 75 dc b0 bf 5b 8c f5 be d5 7f 9f 3f
       2.091308 -1.3817278 -0.47958645 1.2460886
0003e0 ee 71 45 40 20 f6 ac be a6 0b 23 bf 7b 7f 4a 40
       3.0850787 -0.33781528 -0.6368965 3.1640308
0003f0 42 eb 1b 40 1a 29 ff 3d 34 ce 0e bf c4 b9 4d 40
       2.436234 0.124590114 -0.5578339 3.2144632

fcs1.bias f4 [128]
000000 68 87 a6 bf d0 28 1e c0 5e 1e 9d 40 34 38 16 c1
       -1.3010073 -2.471241 4.909957 -9.388721
000010 0b 86 ea bf 68 59 d0 bf f6 f3 5a 3f 96 95 33 c0
       -1.8322157 -1.6277285 0.85528505 -2.806005
000020 16 09 b5 bf 83 c9 cd c0 a3 3f b7 c0 5d 29 48 c0
       -1.4143398 -6.4308486 -5.726518 -3.1275246
000030 db fb 03 c0 5f a7 03 c1 01 28 2b c0 14 41 11 c0
       -2.062247 -8.228362 -2.6743166 -2.269597
000040 3d 82 1b c1 47 65 39 c0 a7 58 16 bf 83 cd 1c c1
       -9.719296 -2.8968065 -0.5872902 -9.800174
000050 9d 03 47 c0 cf 81 17 be 59 75 a8 c0 f5 eb a0 bf
       -3.1095955 -0.14795612 -5.2643247 -1.2572008
000060 b9 bb a1 c0 42 eb 79 c0 fa fc 1a c0 73 cd e0 3f
       -5.0541654 -3.904984 -2.4216905 1.7562698
000070 33 10 bc c0 af 02 00 c0 1e ca c2 40 75 be 17 c0
       -5.8769774 -2.0001638 6.0871725 -2.3709996
000080 0e 93 8a c0 7e 9c 26 40 17 25 0e c1 f0 3a 85 c0
       -4.330451 2.6033015 -8.884055 -4.1634445
000090 75 b9 af bf 5b 40 b6 bf 68 e8 51 c0 0e 4b 34 c0
       -1.3728472 -1.423839 -3.27981 -2.817081
0000a0 62 0d 4c c0 4d 03 30 c0 9e 0c 9b c0 54 df cf c0
       -3.1883168 -2.7502015 -4.84529 -6.4960117
0000b0 74 8b 00 c0 eb c2 05 c1 f6 05 d2 c0 5a 24 7c c0
       -2.0085115 -8.360087 -6.5632277 -3.9397187
0000c0 bb 41 4f 3f 62 50 72 c0 26 f7 4f c0 5b 73 35 c0
       0.8095967 -3.7861562 -3.2494597 -2.8351657
0000d0 1d 3e 51 c0 27 2c 5a c1 c5 5f cc c0 3b fd 96 c0
       -3.269416 -13.635779 -6.3866906 -4.718412
0000e0 1c ba cc c0 18 bd 87 c0 87 bb 2e c0 82 c5 48 c0
       -6.3977184 -4.2418327 -2.7301958 -3.137055
0000f0 5e 00 d6 bf ac 7a a6 bf 7d 1c cd c0 69 1d e5 bf
       -1.6718862 -1.3006186 -6.4097276 -1.78996
000100 85 d9 c5 c0 5a 0a 14 c1 fe 1c d1 bf e2 7d c6 c0
       -6.1828027 -9.252527 -1.6336973 -6.2028666
000110 3d 1e 14 c1 9d 6c 1e c0 40 20 24 c0 4b 48 3b c0
       -9.257382 -2.4753792 -2.5644684 -2.9262874
000120 b4 89 31 c1 21 7c ea bf 15 4f 2e c0 ef eb 3b c0
       -11.096119 -1.8319131 -2.7235768 -2.9362752
000130 08 9c 07 c0 e1 70 25 c0 be 0a 35 c1 62 fa 19 c1
       -2.1188984 -2.5850146 -11.315123 -9.623629
000140 fa 6a 79 c0 fa 34 f2 bf 50 ec d0 c0 50 5f 85 c0
       -3.8971543 -1.8922417 -6.5288467 -4.167885
000150 d8 3a b9 bf e6 13 91 bf c4 ab cc bf 51 55 6d c0
       -1.4471083 -1.1334198 -1.5989919 -3.7083323
000160 a5 6c e0 c0 c9 56 e5 c0 0c 78 15 c0 1a 14 16 c0
       -7.0132623 -7.166844 -2.335452 -2.344977
000170 ac aa 88 c1 a7 51 d5 3f a0 2a 4f c1 9a c9 32 c0
       -17.083336 1.6665543 -12.9479065 -2.7935548
000180 31 f0 78 c0 c5 34 37 c0 b2 76 85 c0 d7 42 20 c0
       -3.8896601 -2.8625958 -4.170739 -2.5040796
000190 cc 6a 0c c0 8c 78 53 40 5a b4 85 c1 e0 1d 8e c0
       -2.1940184 3.3042326 -16.713062 -4.441147
0001a0 2b 2d cd bf 61 d9 75 3f af 0f 9e c0 7b ed 9c bf
       -1.6029409 0.9603482 -4.9394145 -1.2259973
0001b0 d5 6a e9 40 8b 20 54 c0 07 2d 86 c0 ee ab ef bf
       7.294291 -3.3144863 -4.1929965 -1.8724344
0001c0 11 2a 60 c0 71 33 dc bf 04 8c fd bf 7b 88 84 bf
       -3.5025675 -1.7203199 -1.9808354 -1.035415
0001d0 4c 41 0f c1 cb fd d4 bf f7 8d e3 bf 79 9e 42 c0
       -8.953442 -1.6639951 -1.7777699 -3.0409224
0001e0 71 10 bf 3f a5 21 30 c0 e8 95 84 40 ec fe 8a c0
       1.4926893 -2.7520535 4.143299 -4.3436184
0001f0 d3 37 8d c0 fd 9b b4 c0 8a a8 1e c0 0b f7 7f c0
       -4.4130645 -5.6440415 -2.4790368 -3.9994533

bn1.weight f4 [128]
000000 f8 17 ec be 7f ad f3 bd 8a 0b 91 3e 94 ea 60 bf
       -0.46112037 -0.11898326 0.28329116 -0.8785794
000010 5b c9 05 be e2 df b0 3e 49 99 1a be 43 27 03 bf
       -0.13065092 0.3454581 -0.15097536 -0.51231784
000020 c3 a4 97 3d 73 b8 15 bd 9b e4 f2 3d c8 c1 0c bf
       0.07404473 -0.036552858 0.11860009 -0.54983187
000030 e0 05 f2 3c c4 37 ba be be 0e 2f bd 67 d9 8a 3d
       0.029543817 -0.3637067 -0.04273867 0.067797475
000040 20 e9 86 3e 88 5f 80 bd 23 db 5a 3e 94 a5 45 3f
       0.26349735 -0.06268221 0.21372657 0.7720578
000050 2d a9 2d bd 07 c4 cb 3e 81 00 b3 be b8 23 1b bd
       -0.042397667 0.39797994 -0.34961322 -0.03787586
000060 b0 b1 07 3f c1 a4 2a be a9 31 04 3e bc b3 a5 3f
       0.53005505 -0.16664411 0.12909569 1.2945476
000070 3b bd a0 3e 65 42 08 3d c7 10 d7 3e 14 fb e3 3e
       0.3139437 0.033266444 0.42004988 0.44527495
000080 3b cf 0e bb 38 86 8c 3f 6b 0d 94 be df 2e 02 be
       -0.0021791 1.097846 -0.28916487 -0.12713192
000090 78 38 94 3e 42 3e 4f 3e 56 e9 1e bf 9a 57 51 3e
       0.28949332 0.20238593 -0.6207479 0.20443574
0000a0 fb 81 13 3f 90 3c d3 3e c9 56 59 3d 99 9c 8d be
       0.5762021 0.41257143 0.05306128 -0.27658537
0000b0 aa 34 93 3d a6 91 b9 3e eb fe e0 3e 54 74 89 3e
       0.07187779 0.36243933 0.43944487 0.26846564
0000c0 00 6b 3c 3e 5b 81 20 3f d0 f8 07 3f 65 29 74 3e
       0.18400192 0.6269738 0.5311403 0.23843916
0000d0 e4 b9 27 3e 00 ee c4 3f 4c 87 68 3f f5 8e 7b 3b
       0.16379505 1.5385132 0.90831447 0.003838477
0000e0 5a 52 bc 3f cc 68 e1 3e 1d b0 aa 3e ff c6 24 be
       1.4712632 0.44025266 0.3333749 -0.16091536
0000f0 55 cc 20 bf 6c e6 83 3e da 31 cd 3e 5e 22 9c 3b
       -0.62811786 0.25761735 0.40077096 0.004764839
000100 d3 8f a4 b9 ca 19 14 3f 68 44 48 be 87 06 15 3f
       -0.00031387675 0.5785185 -0.19557345 0.58213085
000110 b2 df 85 3f 58 12 2a 3e 2b 53 1c bf 43 17 9a be
       1.0458891 0.1660856 -0.61064404 -0.30095872
000120 48 74 ec be e2 68 86 be be 59 fd 3d 39 84 2a be
       -0.46182466 -0.26251894 0.123706326 -0.16652001
000130 84 52 7a 3d a8 d1 83 3d b5 65 82 3f b2 48 6c 3f
       0.06111385 0.06436473 1.0187289 0.92298424
000140 30 9b f4 bd 5f 64 03 3f 09 aa 94 bf 16 50 61 bc
       -0.11943662 0.5132503 -1.1614391 -0.013752004
000150 80 a5 43 3d 8b 6b f9 3e e8 85 1c bc 43 94 4a bc
       0.047765255 0.4871486 -0.00955341 -0.01236445
000160 4b b2 07 3f b4 1f fe 3d 8a 3b 13 bf 7f 44 9d be
       0.5300643 0.12408391 -0.57512724 -0.3071632
000170 6a f9 34 bf 56 b2 71 3e 86 60 90 3e 76 87 8e bc
       -0.70693076 0.23603186 0.28198642 -0.017398577
000180 11 1a 11 3e eb b1 97 bb e6 66 80 3f 0c 0c 8c be
       0.141701 -0.004629364 1.0031402 -0.2735294
000190 a5 80 47 be bc b5 8f 3f 9f c3 91 3f 1b c6 a2 3d
       -0.19482668 1.1227336 1.1387824 0.07947942
0001a0 9a bf 0d 3f 0c b3 84 be 58 d4 be be b5 be 0f 3c
       0.55370486 -0.25917852 -0.3727138 0.008773495
0001b0 61 17 90 bf f3 b1 02 3e 3e 55 d8 3e 89 f4 9a be
       -1.1257135 0.12763195 0.42252535 -0.3026469
0001c0 f7 50 1e 3e 8f f3 98 3b 09 33 94 3e 6c d7 3f 3d
       0.15460573 0.0046677063 0.28945187 0.0468363
0001d0 a0 5b 9b be b2 70 38 3e 25 92 f0 3d d0 5e 7d be
       -0.30343342 0.1801174 0.11746625 -0.247432
0001e0 e8 35 00 3f ab 71 ea bd 21 b9 b3 3f 1f eb 5f 3e
       0.50082254 -0.11447462 1.4040872 0.21867035
0001f0 a0 dc 55 3c 70 6f d6 3e d5 fb 87 be 4d ef 12 bf
       0.013053089 0.41881895 -0.2655932 -0.57396394

bn1.bias f4 [128]
000000 30 7b 2d be 9a 65 f1 3b 7a bf 90 3c 90 6e ef bd
       -0.16941524 0.007366848 0.017669428 -0.1169101
000010 ff bd 2f 3b f0 45 35 3d cd ef 2b 3d 92 9c b7 3b
       0.0026816127 0.04425615 0.04197674 0.0056033814
000020 0b c6 1f 3c 90 c1 71 3b 70 97 98 3c 26 09 86 3b
       0.009751807 0.0036889054 0.018626899 0.004090446
000030 a4 3b 61 bb 10 31 80 bd 4b 61 68 bb be 38 15 3c
       -0.0034367824 -0.06259358 -0.0035458382 0.009107767
000040 af 5c 8a 3d 4a 31 ac 3b 1f b4 50 bc 8a 91 78 3e
       0.06755959 0.005254899 -0.012738257 0.24274269
000050 9a 61 16 3a 60 61 ad 3d 03 be 66 bf e0 46 03 bb
       0.00057365897 0.084658384 -0.90133685 -0.0020031258
000060 d8 a7 0a 3e 8b ee 81 bc 19 ee 80 3c 2a 47 82 3e
       0.1354059 -0.015860816 0.015738534 0.2544492
000070 75 2c 86 3c 45 fa f3 ba 5f c3 66 bb ea 16 35 bc
       0.01637862 -0.0018614015 -0.0035211665 -0.011052826
000080 46 45 90 3a 9b ff 84 3e af c4 f0 bc f2 dd 51 bc
       0.0011006973 0.25976261 -0.029390661 -0.012809264
000090 29 b5 20 3b c1 2b 35 ba b2 c0 02 3e 96 c6 02 3b
       0.0024522042 -0.0006911122 0.1276882 0.0019954792
0000a0 8a 4a 58 3e 72 c9 0f ba 81 3d 8c 3c 41 a2 06 3e
       0.21122184 -0.0005485035 0.017119171 0.13147832
0000b0 c2 c6 2b 3b b5 9a b9 3b b4 b0 f6 3c a1 8f 2b 3d
       0.0026210998 0.0056641945 0.030113555 0.041885022
0000c0 28 4f 2a bd aa aa b9 3d c6 89 b3 bc 72 22 ec 3b
       -0.041579396 0.09065755 -0.021916281 0.0072062546
0000d0 fb 59 e0 3a 72 d3 e2 3e 53 9c 85 3e 8f 53 18 38
       0.001711666 0.44301945 0.26095828 3.6317444e-05
0000e0 f1 c4 7e 3e 55 23 e1 3d 46 c4 3b 3e 8f 89 a9 bc
       0.24879815 0.10993067 0.18336591 -0.020695476
0000f0 4a 53 93 39 53 54 51 3d 5a 34 91 bd fd ac 5b bb
       0.0002810008 0.05110581 -0.070900634 -0.0033519857
000100 cb b3 23 ba 27 3e 82 3e 69 6d 21 bb c5 e4 e5 3e
       -0.0006244748 0.25438043 -0.0024631864 0.449011
000110 f5 2a ba 3e 04 63 0a ba bb 71 08 bc 9b 71 12 bc
       0.363609 -0.00052790367 -0.008327897 -0.0089382185
000120 88 34 ea bd d9 67 04 bb c9 a2 5b 3b 70 ff a8 3a
       -0.11435801 -0.00202035 0.0033513776 0.0012893509
000130 68 cc 82 bb 1c d6 57 3b 9b 10 88 3e ca dd b4 bc
       -0.0039916523 0.0032934016 0.2657517 -0.022078414
000140 a7 64 51 b9 da 01 b3 3d fc 6b a0 bd 33 a7 a8 3a
       -0.00019969289 0.087405875 -0.078330964 0.0012867212
000150 89 0d cd bb 94 c3 48 3d 51 df e9 ba 3b 31 27 bb
       -0.006257717 0.049014643 -0.0017843043 -0.0025511521
000160 47 7f 1e 3e b9 24 7d bc 5f c5 9a ba 33 67 95 3b
       0.1547824 -0.01545065 -0.0011808089 0.0045594214
000170 b1 30 47 be fc e6 d6 bc ec 7b 9b 3d 90 52 29 3b
       -0.19452168 -0.026233189 0.075919956 0.0025836565
000180 70 c5 5e 3c 18 a4 15 bb 0e d2 07 3e 37 a5 b3 3b
       0.013596877 -0.0022833403 0.13263723 0.0054823416
000190 f4 1d 5e bb ab 15 82 3e 31 e9 79 be bf 37 84 3c
       -0.0033892365 0.25407156 -0.24405362 0.016139863
0001a0 7b 96 ad 3c 2b 76 04 bd 22 5f bc bb 2f fa 0d bb
       0.021189919 -0.032339256 -0.0057486454 -0.0021664014
0001b0 13 f5 be 3e 33 7f 5c bc 69 47 92 ba 9f 7f 31 bc
       0.37296352 -0.013458061 -0.0011160198 -0.01083365
0001c0 4c 93 88 3c 3d 8e b8 3a 74 01 98 bb 33 5d 0c bb
       0.0166718 0.0014080476 -0.004638845 -0.0021417856
0001d0 3b c8 43 bd 08 0e 3e bc 62 45 69 3c 27 b3 b9 bb
       -0.047798377 -0.011600025 0.014237734 -0.0056671086
0001e0 f5 56 b8 be 1c 82 9c bc 7b 07 1f be 38 a4 f8 3b
       -0.36003843 -0.01910501 -0.15530197 0.007587936
0001f0 41 c6 fa 3b 24 d2 3e 3e ef 39 95 3b 8d 5b fd 3a
       0.0076530282 0.1863485 0.0045540254 0.0019329652

bn1.running_mean f4 [128]
000000 34 4b d6 40 04 00 00 00 5e ae 4a 40 67 f9 a0 3f
       6.69668 6e-45 3.1668925 1.2576112
000010 52 a4 8e 0b bb 6b 39 41 6d 9e c4 41 04 00 00 00
       5.494365e-32 11.588801 24.577356 6e-45
000020 04 00 00 00 35 28 c7 3a 9c 0b b2 3f a9 dd 61 3a
       6e-45 0.0015194478 1.3909793 0.0008616099
000030 23 8c 02 3f 87 67 b8 40 04 00 00 00 57 23 8d 3f
       0.5099508 5.7626376 6e-45 1.102641
000040 1d 69 62 3f 04 00 00 00 32 c0 88 3f 3a e1 a0 40
       0.8844164 6e-45 1.0683653 5.0274935
000050 b1 2d 2d 3f cb 1e d9 3d 5f 66 b2 41 04 00 00 00
       0.67647845 0.106015764 22.299986 6e-45
000060 02 94 e6 40 4f 0a 36 3f 9b 30 9f 3f d7 2b 05 41
       7.2055674 0.7110948 1.2436708 8.323203
000070 3c fa 76 42 55 f8 90 3f 5a c5 5a 41 29 1f ab 13
       61.74437 1.1325785 13.673182 4.3197195e-27
000080 10 3b 91 3e a8 45 90 41 9f 86 f6 3f f0 7e d2 40
       0.28365374 18.034012 1.9259833 6.5779953
000090 04 00 00 00 04 00 00 00 76 71 4e 42 04 00 00 00
       6e-45 6e-45 51.6108 6e-45
0000a0 de 9e ba 40 04 00 00 00 d3 85 3c 3f 3f 2f 73 40
       5.831893 6e-45 0.736417 3.7997587
0000b0 04 00 00 00 04 00 00 00 ff 54 33 41 2b ad 26 41
       6e-45 6e-45 11.208251 10.417277
0000c0 e4 cf 45 40 2d 81 39 40 71 a6 d2 40 db c8 d0 3b
       3.0908136 2.8985093 6.5828176 0.0063716
0000d0 51 f2 27 3e 1a 4b 0d 42 87 5b b1 40 ad 3d f9 3a
       0.1640103 35.32334 5.542423 0.0019015573
0000e0 9e a0 5b 3f 19 50 45 40 e1 c6 a9 40 f8 2d ef 3e
       0.8579196 3.0830138 5.305527 0.4671476
0000f0 04 00 00 00 b7 9a 56 40 ad b0 ca 40 04 00 00 00
       6e-45 3.353193 6.334067 6e-45
000100 eb aa 85 3e 5c c7 b5 40 04 00 00 00 5c f7 c0 41
       0.26106963 5.680586 6e-45 24.12078
000110 b8 4f e7 41 04 00 00 00 fc c4 8d 3a 04 00 00 00
       28.913925 6e-45 0.0010816152 6e-45
000120 4c ba 88 3f 04 00 00 00 09 a4 16 29 08 a2 dd 3e
       1.0681853 6e-45 3.344897e-14 0.43287683
000130 d0 e7 e0 3f db 2a 1e 3f 57 85 2f 40 8a ea c4 3f
       1.7570744 0.6178414 2.7425134 1.5384076
000140 23 2b 3e 3d 3d 88 73 40 86 45 99 3d cf c8 42 3b
       0.046427857 3.8051903 0.07483964 0.0029721742
000150 4e 37 90 3d dd 3d 1e 3e 04 00 00 00 79 31 1a 3e
       0.070417985 0.15453286 6e-45 0.15057935
000160 d6 cb 6c 40 58 dd fc 3f 04 00 00 00 04 00 00 00
       3.6999412 1.9755049 6e-45 6e-45
000170 d3 aa d8 3f a9 62 ac 41 59 5f 88 40 8d 8c 1d 3e
       1.6927131 21.548174 4.261639 0.15385647
000180 01 54 e3 3f 9f 58 8a 3a d5 b0 82 42 04 00 00 00
       1.7760011 0.0010554976 65.345375 6e-45
000190 04 00 00 00 b8 ce 89 41 e2 2f b9 40 23 f5 ea 3d
       6e-45 17.225937 5.787095 0.11472537
0001a0 c4 09 a4 40 f9 7f 0b 41 04 00 00 00 89 ea 0d 39
       5.126192 8.718743 6e-45 0.00013534179
0001b0 d6 0c b2 41 d3 80 a6 3d 04 00 00 00 11 68 64 3a
       22.256268 0.0813004 6e-45 0.0008713017
0001c0 99 f1 15 40 85 fd 6f 3f 04 00 00 00 04 00 00 00
       2.342871 0.93746215 6e-45 6e-45
0001d0 1a 1a c4 3f de 00 90 3f 95 18 a4 3e 04 00 00 00
       1.5320466 1.1250265 0.32050005 6e-45
0001e0 03 96 47 41 39 06 5d 40 ab 4b 03 41 4e ac 3b 3f
       12.474124 3.4535048 8.205974 0.7330979
0001f0 fe 38 80 1e ab 19 07 41 04 00 00 00 b6 6a 5c 20
       1.3576099e-20 8.443767 6e-45 1.8670033e-19

bn1.running_var f4 [128]
000000 4a f6 db 43 04 00 00 00 65 44 85 43 46 16 0a 42
       439.92413 6e-45 266.53433 34.52175
000010 27 fb 1c 0d 25 ba 6a 44 99 69 27 44 04 00 00 00
       4.8373525e-31 938.9085 669.64996 6e-45
000020 04 00 00 00 9c 62 b4 3b 99 48 7f 42 23 73 cd 3b
       6e-45 0.005504919 63.820896 0.006269829
000030 1e e4 87 41 f0 c8 48 43 04 00 00 00 dc 88 48 42
       16.986385 200.78491 6e-45 50.13365
000040 bf 9f b1 41 04 00 00 00 a7 d9 6e 42 0e c9 9b 42
       22.203001 6e-45 59.71255 77.892685
000050 78 62 12 42 b6 01 f7 3f c8 88 42 45 04 00 00 00
       36.59616 1.9297397 3112.5488 6e-45
000060 19 12 9f 43 f3 c3 03 42 22 50 69 42 d5 bb 01 43
       318.1414 32.941357 58.328255 129.73372
000070 9b e5 85 44 d8 c5 61 42 21 eb 11 43 c1 24 de 14
       1071.1752 56.443207 145.91847 2.2430768e-26
000080 bd 96 f0 40 34 2f 9e 43 bf 28 34 42 91 f1 d0 43
       7.5184007 316.36877 45.03979 417.88724
000090 04 00 00 00 04 00 00 00 3e 3f e1 44 04 00 00 00
       6e-45 6e-45 1801.9763 6e-45
0000a0 0a 38 25 43 04 00 00 00 8f f1 05 42 7b b7 18 43
       165.2189 6e-45 33.485897 152.71672
0000b0 04 00 00 00 04 00 00 00 ff 02 90 43 08 16 1b 44
       6e-45 6e-45 288.0234 620.34424
0000c0 f1 98 fc 42 98 25 06 43 f5 75 43 43 31 77 bc 3d
       126.29871 134.14685 195.46077 0.092024215
0000d0 56 98 6f 40 f2 7c 1e 45 c7 8c c7 42 dc 31 ff 3b
       3.7436728 2535.809 99.774956 0.007787926
0000e0 03 7a 2f 42 8b 9a 2e 42 9f ac c6 42 03 7b 78 41
       43.869152 43.65092 99.33715 15.530032
0000f0 04 00 00 00 8d 61 86 43 c8 cb 6d 43 04 00 00 00
       6e-45 268.76212 237.79602 6e-45
000100 8e 60 93 40 bc 8f 49 43 04 00 00 00 37 81 98 44
       4.6055365 201.56146 6e-45 1220.038
000110 f5 d4 f3 44 04 00 00 00 59 e2 36 3b 04 00 00 00
       1950.6549 6e-45 0.002790591 6e-45
000120 57 67 62 41 04 00 00 00 e1 65 69 2a 7d b2 54 41
       14.150229 6e-45 2.0729904e-13 13.293576
000130 70 96 cf 42 91 f3 ce 41 50 61 99 41 ec 87 28 42
       103.79382 25.868929 19.172516 42.132736
000140 de b9 90 3f 49 09 fc 42 49 50 86 3f a1 68 f9 3c
       1.1306722 126.018135 1.0493251 0.030445399
000150 1e a2 0d 40 f5 33 00 40 04 00 00 00 5f 60 5a 40
       2.2130198 2.0031712 6e-45 3.412132
000160 b4 30 0b 43 22 d5 f4 42 04 00 00 00 04 00 00 00
       139.19025 122.416275 6e-45 6e-45
000170 3d 03 f6 41 ff d4 ba 44 5e 99 88 42 eb 81 87 40
       30.751581 1494.6561 68.299545 4.234609
000180 05 5c ea 42 54 fe 7f 3b cd 8f 69 45 04 00 00 00
       117.179726 0.0039061503 3736.9875 6e-45
000190 04 00 00 00 ce 1f 7c 43 9a bc 95 42 41 1d 36 40
       6e-45 252.12424 74.86836 2.8455355
0001a0 63 25 2e 43 6f 97 06 44 04 00 00 00 f8 0c 86 39
       174.14604 538.36615 6e-45 0.00025568134
0001b0 e8 4a 92 43 22 e2 40 40 04 00 00 00 3c 19 d2 3b
       292.5852 3.013802 6e-45 0.0064116996
0001c0 61 20 d7 42 68 5a 0a 42 04 00 00 00 04 00 00 00
       107.56324 34.588287 6e-45 6e-45
0001d0 a9 2d 95 42 4f de 23 42 63 90 0d 41 04 00 00 00
       74.58918 40.9671 8.847751 6e-45
0001e0 46 0b 60 43 c0 8f 5b 43 74 c0 c3 42 47 83 ed 41
       224.04404 219.56152 97.875885 29.6891
0001f0 de c1 47 1e 47 05 7d 43 04 00 00 00 45 92 13 22
       1.0575063e-20 253.02061 6e-45 1.999965e-18

fc2.weight f4 [128, 130]
000000 8d 0b 50 3f 5f 55 a1 be 43 db 2e bd 1a 5d ef 3d
       0.81267625 -0.31510445 -0.042689573 0.116876796
000010 50 98 c4 be bc 8e 60 be ff a8 f4 bd a2 c2 ca be
       -0.38397455 -0.21929449 -0.11946296 -0.39601618
000020 89 ae 06 3f 3a 8b a2 bd 2b d4 f2 3e d5 78 8c be
       0.5261007 -0.079367116 0.47427496 -0.27435938
000030 6f d0 fa be 95 3b 41 be c5 46 19 3f f1 f4 2f bf
       -0.48987147 -0.18870385 0.5987361 -0.68733126
000040 8a 78 35 bf 52 1a f7 be 84 52 cd 3e 89 e3 51 bd
       -0.70887053 -0.48262268 0.40102017 -0.051242385
000050 86 c1 cd bd b9 6a 5e bf f1 e0 e4 3f b8 86 3b be
       -0.10046677 -0.86881596 1.7881147 -0.1831311
000060 44 26 d7 3d 60 35 99 3d c3 06 a0 3e a8 a4 16 3d
       0.105053455 0.074808836 0.3125516 0.036778122
000070 a6 5b 0d 3f 06 a9 16 be 3d 0d 3d be 8a 9e 0b 3e
       0.5521797 -0.14712915 -0.18462081 0.13634697
000080 70 22 8f 3e bc b0 42 bd 05 ca ed bd f7 29 92 3e
       0.2795596 -0.04753183 -0.11610798 0.28547642
000090 2f 0f 81 3e de a2 b4 3d 55 5a 2f be 09 a4 06 bf
       0.25206897 0.08820127 -0.17124303 -0.5259405
0000a0 5e 95 0a bf 71 c3 4f 3c 83 9b 4f be c1 93 21 bf
       -0.54134166 0.012680874 -0.20274167 -0.6311608
0000b0 e1 b5 ce bd 73 4f 8a be 5a bf 9e be bf 9e 2b bf
       -0.100932844 -0.2701374 -0.31005365 -0.670391
0000c0 95 50 07 3f 5e 6a 49 3e 62 e1 4f 3d c4 90 29 3e
       0.52857333 0.19669482 0.05075205 0.1655913
0000d0 53 dc f3 bb 0e 85 0c 3e e7 61 ac 3e 70 7e 60 be
       -0.007442036 0.13722631 0.33668444 -0.21923232
0000e0 73 db 84 be bd 4e 48 3e 00 e6 3f 3e 25 2d fc bd
       -0.25948676 0.19561286 0.18740082 -0.12313298
0000f0 71 b9 71 be 8b da 0a bf 66 05 e4 3e 11 93 5e 3e
       -0.23605897 -0.5423972 0.4453537 0.21735789
000100 76 48 b6 3d f4 6f a4 3c 64 d4 77 3c d3 a3 c0 bf
       0.089005396 0.020072915 0.015126321 -1.5049995
000110 ff d9 e5 bb b8 cf a5 3e 76 cf aa be 51 d5 a3 bd
       -0.0070145126 0.3238504 -0.33361405 -0.07999671
000120 08 e5 75 be d8 2f 87 be 8a 75 23 be 15 df 43 3e
       -0.2401315 -0.2640369 -0.15962806 0.19128068
000130 2c 29 86 3d f4 dc 5d be 37 11 3f be e5 eb 03 3e
       0.06550822 -0.21666318 -0.1865891 0.12882955
000140 fa 66 50 be a8 bb 92 bd 7a 08 e2 3e 00 b8 df 3e
       -0.20351782 -0.07164699 0.44147092 0.43695068
000150 37 05 c0 3e 73 e2 5d bf fc 4d 17 bd fe a1 3f 3e
       0.3750398 -0.8667366 -0.036939606 0.18714139
000160 40 26 9f 3e 17 3f e8 3d 53 5f 01 3e 8f a6 04 3f
       0.3108387 0.113401584 0.1263402 0.5181665
000170 3b 8d d0 3e 08 14 6a 3e 0d 32 21 3e ba 40 26 3d
       0.4073275 0.22859204 0.15741749 0.04058907
000180 e6 95 72 bf ee a4 32 3f 4e 4a 95 be 06 4c e9 3e
       -0.94759977 0.6978291 -0.29158252 0.45565814
000190 6e 32 01 bf 40 a3 19 be 17 ff 16 be a4 dc 34 bc
       -0.50467575 -0.15003681 -0.14745747 -0.011038933
0001a0 12 c1 87 bf 15 c6 dc bd 85 ab 0b be ad f2 02 bf
       -1.0605795 -0.10779969 -0.13639648 -0.51151544
0001b0 46 85 f4 be 90 eb 78 be a0 5e 12 3f 71 d3 0e 3d
       -0.4775793 -0.2430861 0.57175636 0.034869615
0001c0 3a ee c3 bc 35 e8 cc 3d 54 cc 02 3f 66 10 7e 3e
       -0.023917306 0.100052275 0.5109303 0.24810943
0001d0 ae 99 97 bd 25 de 9a be 22 85 63 be fd b4 42 3f
       -0.07402359 -0.30247608 -0.22218755 0.76057416
0001e0 f6 43 fa 3e e2 6a 3a 3d 1c 8b 9b be 4b b4 1d be
       0.48879975 0.045512088 -0.3037957 -0.15400808
0001f0 05 f3 11 bd c6 95 92 be ec b1 42 bd 03 c4 30 3e
       -0.035632152 -0.28629893 -0.04753296 0.17262273
000200 3a cd dc 3c 24 ab 17 3e f2 90 8d 3f 8d a0 90 3d
       0.026953328 0.14811379 1.1059859 0.07061873
000210 5a f0 25 3f 40 fb 09 3f 37 b1 3c 3e 39 46 a9 be
       0.6481987 0.53899 0.18426977 -0.33061388
000220 ba 5e 94 be b2 d8 87 3e 85 f4 3f 3e 0f 43 a5 bd
       -0.2897852 0.26532513 0.1874562 -0.08069431
000230 d2 47 b9 3e e4 3c 67 3c 3c b9 c6 3e 52 ec 6c be
       0.36187607 0.014113639 0.38813198 -0.23137024
000240 38 a2 85 3d 44 dc 01 3e db cd 03 bf 86 36 9e 3b
       0.065250814 0.12681681 -0.51485986 0.004828277
000250 c7 f9 d0 3d 05 aa c8 bc cd e1 a8 be 7a da 6f bf
       0.10203891 -0.024495134 -0.32984772 -0.93692744
000260 4a 83 21 40 86 72 0d 3d 39 70 45 3f 6e 30 af be
       2.5236382 0.034533046 0.77124363 -0.34216636
000270 66 a4 4b 3e ae a6 42 3e b5 d5 14 3e 7e 14 12 be
       0.19886932 0.19008896 0.14534648 -0.1426563
000280 1a 79 91 3d d4 19 a3 be 10 27 d0 be 70 76 44 be
       0.071031764 -0.31855643 -0.40654802 -0.19185805
000290 e1 6e a2 3e f8 7f b0 3d 0e a3 0c be bb f6 d3 be
       0.3172522 0.08618158 -0.13734075 -0.41399178
0002a0 18 d0 76 be bb f4 12 be 4f c2 fd 3d cf e5 dd bd
       -0.24102819 -0.1435117 0.12390577 -0.10834848
0002b0 b2 67 b9 3b 3b 30 37 bf fe 87 dc 3c bd 8f 84 bc
       0.0056581134 -0.7155797 0.026920315 -0.016181821
0002c0 ed 06 5b 3e 8f 41 8b be bd a4 9d be 79 43 8a be
       0.2138936 -0.27198455 -0.30789748 -0.27004603
0002d0 0e 9f 1e 3d 6c 82 2d 3c 17 8d 83 be b8 3f 96 3c
       0.038725905 0.010590177 -0.2569358 0.01834093
0002e0 d6 de 21 3e ea 1b 28 bf 5e 26 42 bf 73 8a f7 3e
       0.15807661 -0.65667593 -0.75839794 0.48347816
0002f0 f1 29 fa 3e 86 cf b1 3e a7 ea 66 3d a9 79 08 be
       0.48860124 0.3472864 0.056376126 -0.1332766
000300 a2 39 98 3e c6 04 45 3e da 60 67 3c b4 e7 b4 be
       0.2973147 0.19240102 0.014122212 -0.35333025
000310 d4 68 18 be 2a a0 e6 bf 6f 1a b9 3d 37 11 9c be
       -0.14883739 -1.8017628 0.09038245 -0.30481884
000320 0b b7 b2 3c f0 bd 43 3e d6 f3 1f be 4d fa eb be
       0.021815797 0.19115424 -0.1562036 -0.46089402
000330 1e 52 6c 3e 3e 25 da 3d f5 91 91 3d f2 ca 07 3e
       0.230782 0.10651635 0.07107917 0.13261011
000340 70 84 58 be 8f de cc 3e 21 23 da 3d 1a 25 7b bb
       -0.21144271 0.4001355 0.106512316 -0.0038321675
000350 e3 a1 bd 3e d2 fd 1a be 93 74 05 bd 17 81 ed 3d
       0.37037572 -0.15135887 -0.032581877 0.115968876
000360 31 55 cd bc 6e df ab 3e 76 66 88 3e 22 9d 0a 3d
       -0.025065036 0.335689 0.26640671 0.03384126
000370 79 94 87 3e 7b 2a be bd da 72 3f bc 78 44 a7 bd
       0.26480463 -0.09285446 -0.011685098 -0.08167356
000380 a5 34 2b bc 15 9e 75 3d 32 84 28 be 76 f3 06 bf
       -0.010449563 0.059965212 -0.16456679 -0.5271524
000390 76 a4 2b be 50 78 11 3e a4 56 1e be 47 53 02 bf
       -0.16761956 0.14206052 -0.15462738 -0.5090832
0003a0 b4 3c f2 3e d9 fc 29 bd a4 37 a6 bf 7c de 30 be
       0.47311938 -0.0415009 -1.298573 -0.17272371
0003b0 07 0a 37 be 3b f6 99 bd 09 32 27 bf ee 50 5e be
       -0.17874919 -0.07517668 -0.6531072 -0.2171056
0003c0 d8 84 4c 3e 71 0d fb 3c 0c 6d 64 be 38 2e 43 3e
       0.19972551 0.030646058 -0.22307223 0.190606
0003d0 43 56 8e be 70 0e c6 bd b1 d7 d7 be f2 15 61 3e
       -0.27800187 -0.096707225 -0.42156747 0.21981028
0003e0 f7 86 fb 3b cb 3e 42 3d 6d aa 82 3e 7a bc 33 be
       0.007676001 0.047423165 0.2552065 -0.17552367
0003f0 15 ac ab 3d 41 4c c6 3c e2 5f b1 be 6f 81 4e bf
       0.083824314 0.024206283 -0.34643465 -0.8066625

fc2.bias f4 [128]
000000 1f 71 c2 bf bc ac 0b c0 89 e7 a0 bf 1b af c8 bf
       -1.5190772 -2.1824179 -1.2570659 -1.5678438
000010 e2 c8 ca bf fb 83 10 c0 8f 4f 17 c0 d0 8c 92 bf
       -1.5842555 -2.2580554 -2.3642309 -1.1449223
000020 41 e7 89 bf 81 47 58 c0 36 27 bd bf fd 02 0e c0
       -1.0773698 -3.3793643 -1.4777591 -2.2189324
000030 94 f6 e5 bf b5 b7 f9 bf c5 f3 0b c0 b1 6c a4 bf
       -1.7965875 -1.9509188 -2.1867535 -1.284567
000040 3b f1 0e c0 fb 20 0b c0 86 8b 2b c0 31 cb 07 c0
       -2.2334735 -2.173888 -2.6803908 -2.1217768
000050 77 64 f4 bf 82 45 db bf b1 21 ae bf 6c 1b d5 bf
       -1.909316 -1.7130587 -1.3604032 -1.6648993
000060 57 16 02 c0 6e 74 2a c0 43 e6 0e c0 39 e6 0f c0
       -2.0326135 -2.6633563 -2.232804 -2.2484267
000070 20 df de bf 37 f6 9c 3c 57 1b ff bf 4c 18 b2 bf
       -1.7411842 0.019160373 -1.9930218 -1.3913665
000080 cd 91 cf bf b3 f3 c5 bf 87 08 de bf 3f d2 e5 bf
       -1.621637 -1.5464996 -1.7346352 -1.7954787
000090 00 b6 de bf f9 b6 a0 bf 59 5a f4 bf ad 28 0e c0
       -1.7399292 -1.2555839 -1.9090072 -2.2212327
0000a0 05 e3 a5 bf 38 4c ff bf 15 2a e0 bf a5 ab 10 c0
       -1.2959906 -1.9945135 -1.7512842 -2.2604764
0000b0 e8 e2 e0 bf bd 86 40 c0 1f a7 28 c0 e0 e2 88 bf
       -1.7569246 -3.0082238 -2.6352003 -1.0694237
0000c0 7d 34 13 c0 cb 8f b6 bf 76 c2 12 c0 43 c7 d3 bf
       -2.3000786 -1.4262632 -2.293119 -1.6545185
0000d0 77 fc b1 bf 2d 50 8d bf 1a 8b db bf 67 81 22 c0
       -1.3905171 -1.1040093 -1.7151825 -2.539148
0000e0 78 20 00 c0 54 b8 c3 bf a3 8a d2 bf c1 1a e8 bf
       -2.0019817 -1.5290627 -1.6448559 -1.8133165
0000f0 1b b7 f2 bf 73 70 de bf d6 fa cc bf 7a df b5 bf
       -1.8962129 -1.7378067 -1.6014049 -1.4208825
000100 a9 4a 35 c0 f3 7c c8 bf dc 5d 20 c0 5a b5 df bf
       -2.832682 -1.5663131 -2.5057287 -1.7477219
000110 06 90 fe bf c5 57 10 c0 ed 77 20 c0 23 3d de bf
       -1.9887702 -2.255357 -2.5073197 -1.7362407
000120 81 94 04 c0 9e 05 e9 bf 31 91 18 c0 8f aa e8 bf
       -2.071564 -1.8204839 -2.3838618 -1.817705
000130 c7 ea 1a c0 b3 b2 ab bf 08 f3 f5 bf d7 2b e9 bf
       -2.4205797 -1.341391 -1.9214792 -1.8216504
000140 91 b1 ee bf 36 0d 02 c0 a2 70 f8 bf 9e ab 0b c0
       -1.8647939 -2.0320563 -1.9409373 -2.1823497
000150 d4 04 f3 bf 6d 1c c7 bf e7 c0 e1 bf d5 f4 17 c0
       -1.8985848 -1.555555 -1.7636994 -2.3743184
000160 a7 a3 17 c0 78 4f e3 bf 63 71 33 c0 65 bb 66 bf
       -2.3693635 -1.7758627 -2.8037956 -0.9012969
000170 1d aa c3 bf 3b 01 c5 bf 9a d6 e2 bf df c3 b2 bf
       -1.528629 -1.5391 -1.7721741 -1.3966025
000180 b7 41 d5 bf c8 5d 18 c0 91 3d ff bf b0 75 a2 bf
       -1.666068 -2.380724 -1.9940664 -1.2692165
000190 a0 f5 a2 bf ae 92 98 bd df f5 91 bf b8 d5 4e c0
       -1.2731209 -0.07449852 -1.1403159 -3.2317944
0001a0 03 b7 ad bf 00 c7 df bf 3c 92 0a c0 e9 d7 81 bf
       -1.3571476 -1.7482605 -2.1651754 -1.0144016
0001b0 9a 07 e2 bf f5 67 f2 bf cf bf b2 bf 8f 03 96 bf
       -1.765857 -1.8937975 -1.3964785 -1.1719836
0001c0 00 1a d9 bf a4 7e d2 bf c2 88 0a be a2 1a c4 bf
       -1.696106 -1.6444898 -0.13528731 -1.5320628
0001d0 64 02 c6 bf 34 d1 c0 bf 45 d6 d6 bf b2 bd 42 c0
       -1.546948 -1.5063844 -1.678414 -3.042828
0001e0 c1 96 f8 bf 7e 82 d3 bf f9 e4 0c c0 ba 41 f3 bf
       -1.9421006 -1.6524198 -2.2014754 -1.9004433
0001f0 d4 4a 9c bf e4 04 2b c0 56 03 02 c0 63 42 c3 bf
       -1.2210336 -2.6721735 -2.0314536 -1.5254635

fc3.weight f4 [1, 128]
000000 a9 9c d5 bd d5 0c 27 bd d8 fa a7 3d 37 f6 ec bd
       -0.10430271 -0.040783722 0.082021415 -0.11570399
000010 09 b7 d3 bd 87 22 82 3d a3 ac a9 bd a0 c2 a1 bc
       -0.103376456 0.06354242 -0.08284881 -0.019746125
000020 34 a6 fc bd b3 00 b1 3d d1 9b 9d bd 6c 18 17 3d
       -0.12336388 0.086427115 -0.07695735 0.036888525
000030 19 1e 86 3d 72 41 59 3a 4f 6a c8 bd 55 fb 76 bd
       0.065487094 0.0008287645 -0.09785902 -0.060298283
000040 22 63 02 3d 7a d0 89 bd 54 a7 c4 bd af f7 c6 3c
       0.03183282 -0.06729217 -0.09602228 0.024288027
000050 b2 ea f8 3d 29 ab 64 3d 68 b6 06 3c f8 3f 3b bd
       0.121541396 0.055827294 0.0082222 -0.045715302
000060 fc b0 4a 3c d9 53 b6 3d e0 53 06 3d 4f 16 bd bd
       0.012371298 0.089027114 0.032794833 -0.09232771
000070 dc a3 f5 bb 6a 79 86 bd c8 29 46 3c 04 87 4f bd
       -0.00749634 -0.06566127 0.012094922 -0.05066587
000080 1d 89 db 3c 23 27 7b 3d 7f 00 c4 3d 2f 09 a0 3d
       0.02679878 0.06131662 0.09570407 0.07814252
000090 33 4d fa 3c d3 bd 02 be e4 15 0a 3e 21 ec cd bd
       0.03055439 -0.12767725 0.13484913 -0.10054804
0000a0 0b b3 80 3d 04 21 f2 3d a8 02 60 3b 46 57 a2 3d
       0.0628415 0.118227035 0.003418127 0.07926802
0000b0 da 4f 95 bd aa c6 e7 bd 89 00 88 3c 8f 89 86 bd
       -0.07290621 -0.11317189 0.016601818 -0.06569206
0000c0 52 9e d9 bd 5a e3 5c bd b7 04 7a bd dd 3f 0f 3e
       -0.106259 -0.053927757 -0.061039653 0.13989206
0000d0 53 81 80 3c 38 a5 7b bd 9e 6a 10 bd fb e4 92 bd
       0.015686667 -0.06143686 -0.035257928 -0.07172581
0000e0 d9 da de bd 8d d0 4c bd 84 4b 48 3d a9 c2 7c 3c
       -0.10881586 -0.050003577 0.048900142 0.01542727
0000f0 04 77 b0 3d df 1a 84 3d 1d 58 6f 3b 16 51 f5 3d
       0.086164504 0.06450438 0.0036521025 0.119783565
000100 36 f6 a7 3d a8 e2 23 3c dc 72 e1 bd cd 2d 23 3d
       0.08201258 0.0100027695 -0.11008236 0.0398386
000110 5a 3e 0f 3c d9 9d 0b be 8e 31 4c 3d 34 93 13 be
       0.008742893 -0.13634433 0.049851947 -0.14411622
000120 f8 ea 52 3c 74 f0 91 bc 5c 8b 5e bc 89 ae 27 3d
       0.012873404 -0.017814852 -0.013583031 0.040937934
000130 03 0d e1 3c 95 b0 d2 bd a7 cd 4b 3d 40 c7 f3 3d
       0.027472025 -0.102875866 0.049756672 0.11903238
000140 6b 42 b5 bc 61 e6 d9 3d 84 3e 07 3e 06 6f f4 bd
       -0.022126397 0.106396444 0.13207442 -0.119352385
000150 c8 53 e2 bd 14 c3 13 be f4 05 6e bd 21 97 1f be
       -0.11051136 -0.14429885 -0.058111146 -0.15584995
000160 12 fa 11 3e 19 e7 3d 3e ab 0d 8d 3d 3e 88 0e be
       0.1425555 0.18545188 0.068873726 -0.1391916
000170 e9 1d 48 3c a3 9d 2c 3d 17 bf 1a bd 06 5e 20 3e
       0.012214162 0.04214252 -0.037779894 0.15660867
000180 e0 d8 17 bd b0 07 49 bd a0 56 9e 3d 8d fd 40 bd
       -0.037072062 -0.049079597 0.07731366 -0.047116805
000190 68 16 09 be 2a 1a 8a 3d a2 01 1f bd fb f5 69 3d
       -0.13387454 0.06743272 -0.038819917 0.05711935
0001a0 e9 cd c5 bc 44 e9 db bc 10 c7 21 3d b9 29 85 3d
       -0.024146037 -0.026844628 0.03949648 0.065020986
0001b0 21 e4 05 bd ed 31 72 bc f8 43 c6 bd bd 44 8e bd
       -0.032688264 -0.014782411 -0.09680933 -0.069467045
0001c0 bf 56 21 be c4 0d fb 3c 4b 7a 62 3d 37 d3 9c bd
       -0.15755747 0.030646212 0.05529241 -0.076574735
0001d0 6d 6c b4 bd 28 ca 0b 3d 2c 50 1b 3d 00 47 4d bd
       -0.08809743 0.034128338 0.037918255 -0.05011654
0001e0 e3 44 0e 3e 14 12 12 3c 39 82 be 3d 41 37 e4 bd
       0.13893466 0.008915443 0.09302182 -0.11143351
0001f0 11 b9 13 be ee 65 19 bd 8a b4 f6 3c 8b 28 60 bd
       -0.14426066 -0.037450723 0.030115385 -0.054726165
