checkpoint_actor.pth (torch_old, 86005 bytes, 14 tensors)

fc1.weight f4 [128, 24]
000000 d2 50 be 3d 66 b7 1a 3e d1 d5 52 3d c8 38 a8 3d
       0.09292759 0.15109023 0.051473442 0.08213955
000010 e1 c4 3f bd 34 38 45 bc 20 ce 92 bd 5e dc 10 bd
       -0.046818618 -0.012037326 -0.071682215 -0.03536641
000020 00 09 77 bd e1 90 5c 3e bd 48 b0 3c bc a3 85 3d
       -0.060311317 0.21539642 0.02151906 0.065253705
000030 52 1d 7e bd e5 9d 25 be 6b 50 80 bd 4b d5 cb ba
       -0.06203968 -0.16173513 -0.062653385 -0.0015551237
000040 bb 12 02 3d b3 12 e3 3d bc 56 27 bd 41 65 1b bd
       0.031756144 0.11087551 -0.0408542 -0.03793836
000050 a3 c9 4c be ed d6 57 be 07 f0 75 bb 97 91 1d 3d
       -0.19998793 -0.21078081 -0.00375271 0.038468923
000060 6c ac d5 bc 3c b8 c6 bd 6d 81 82 bd 52 da 8e 3c
       -0.026083194 -0.09703109 -0.06372342 0.017438088
000070 fb df 20 be 44 37 17 bd 88 57 d0 3d 2e 4c 1d bd
       -0.15710442 -0.03691794 0.10172945 -0.03840273
000080 61 b3 5e bd ab cf 12 be a1 21 92 3d 75 86 6a 3d
       -0.054370288 -0.14337032 0.071353205 0.057257134
000090 21 fb 40 be 92 20 11 3c 49 c6 1f bd 1c 08 94 bd
       -0.18845798 0.008857863 -0.03900746 -0.07228109
0000a0 74 c7 14 bb 0c 08 ba bd 33 8b 22 3d 09 f5 c4 3b
       -0.002270189 -0.09083566 0.039683532 0.006010656
0000b0 96 ce 90 3d 0f 8d 48 3e 50 49 9a bb 5c 08 26 bc
       0.07070653 0.1958506 -0.0047084466 -0.010133829
0000c0 a2 d3 8c 3d 6e a7 0d be 30 ef ae 3c 41 ee c7 bc
       0.06876303 -0.138334 0.021354288 -0.0244056
0000d0 47 b1 9c bc 2c 38 80 3d 4c 7c 22 3b fa f6 46 3b
       -0.019127501 0.06260714 0.0024793325 0.0030359612
0000e0 74 b4 ad 3d d7 cc 7d be 17 cd 4f 3d 38 6b 5d bd
       0.08481684 -0.24785171 0.0507327 -0.05405733
0000f0 e2 7b a3 bd 90 02 0b 3e 56 c1 ca bc 62 b3 ec bc
       -0.07982613 0.13575196 -0.024750393 -0.02889413
000100 f7 d2 e0 3b 3f 2c 60 be ac 8c b7 3c 33 db ba 3d
       0.0068610865 -0.21891879 0.022405945 0.0912384
000110 25 a4 45 be f5 98 3e 3e 70 33 af 3b ce 2d d8 3d
       -0.19300897 0.18613036 0.005346708 0.105556116
000120 ad 9a 31 be 27 13 6f bd 51 c9 74 bd 56 7f ef bc
       -0.1734416 -0.058367874 -0.059762303 -0.029235523
000130 3d a5 eb 3c 38 2b 89 3e 4e 02 16 3d 9d fa 7e bc
       0.028765315 0.26790786 0.03662329 -0.015562681
000140 93 bb bc bd f7 45 60 bd 54 e4 3b bc 93 c8 5a bc
       -0.092154644 -0.054754224 -0.011468012 -0.013353485
000150 e7 2c 0f 3e 6f 74 48 3d c3 a3 11 3d 9e 29 43 3d
       0.13981973 0.048939165 0.035556566 0.04764711
000160 09 f7 06 bd c7 5c c4 3d d9 64 5a 3d f4 da f2 bb
       -0.032950435 0.095880084 0.053318832 -0.007411355
000170 86 e4 d4 bc 04 69 49 bd 3b d6 ea bc af 77 b0 3d
       -0.025987875 -0.049172416 -0.028666606 0.08616578
000180 06 2b 2d bd b2 2d 0d bd d3 ef 29 bd f7 b7 28 bd
       -0.04227736 -0.034467407 -0.04148848 -0.041191068
000190 18 82 55 be f0 a2 fa bd 7c 66 2e 3d 8b d2 22 3d
       -0.20850408 -0.12238109 0.042578205 0.03975157
0001a0 38 42 f8 3c 4c 24 69 bc 6e 34 10 bd 49 9f 93 ba
       0.030305013 -0.014229845 -0.03520625 -0.0011262681
0001b0 a8 35 ba bd 0e c0 c1 bb 6a ed f5 3c 0b d1 21 3d
       -0.09092265 -0.0059127873 0.030020434 0.039506
0001c0 a3 91 1b 3d 56 60 ee bc f9 fb 17 3d f4 c9 87 bd
       0.037980687 -0.02909867 0.037105534 -0.066303164
0001d0 63 04 e3 3d 5b 32 51 3e 78 c7 e7 bc 79 54 94 3d
       0.11084821 0.20429365 -0.028293356 0.072426744
0001e0 b0 e2 81 bc 1e 31 47 3e 44 6d 63 bd e7 c5 e3 bc
       -0.015855163 0.1945233 -0.055524126 -0.027804328
0001f0 20 0d 63 3d b1 f4 c0 bd 35 00 4c 3d 72 07 e8 3d
       0.05543244 -0.09421671 0.049804885 0.11329545
000200 30 6c 30 bc 44 3c 5f 3e b3 07 84 bb 3e 1c 6a 3d
       -0.010767981 0.21800333 -0.004029238 0.05715584
000210 54 3f fe 3d 9b cd 96 bd 12 57 9c bc c6 88 b4 3d
       0.12414423 -0.07363435 -0.019084487 0.0881515
000220 0e a0 9a 3b ee 1b 83 3e 61 1a 07 3d 3e e3 ec bd
       0.004718787 0.25607246 0.03298414 -0.115667805
000230 3f 77 fb 3d db 12 34 bd 24 25 7d bd dd 48 16 be
       0.12278604 -0.043963294 -0.061803 -0.14676233
000240 af df d5 3d 35 ca 6e bd e9 fc e0 3c a9 ba f9 ba
       0.10443055 -0.05829831 0.027464347 -0.0019052821
000250 81 56 c7 bc 24 ff fa bc 08 97 32 bd c2 cd 22 3b
       -0.02433324 -0.030639239 -0.043601066 0.002484188
000260 40 76 49 3d bd 1e b1 3d e2 59 64 bc f2 ab 4c bd
       0.049185038 0.08648441 -0.013937445 -0.049968667
000270 a8 ed ad 3d 75 72 88 3d 0f 51 e4 bb 3f c5 91 3c
       0.08492595 0.06662456 -0.0069676707 0.01779425
000280 70 bd 52 3e f3 9c b0 3d 18 ce 33 3d e3 8d 52 bd
       0.20580077 0.08623686 0.04389772 -0.051404845
000290 a8 0b a7 bd d9 d3 d0 bd b7 73 71 bd 11 88 8b 3d
       -0.0815652 -0.10196657 -0.058948245 0.06813062
0002a0 8d bd 0f 3e 41 c8 6e 3d 5e 7e 32 ba 0e 24 e7 3c
       0.14037152 0.058296446 -0.00068089913 0.028215434
0002b0 8f 39 24 3c 37 81 d3 3d 0d f7 7c 3d f7 98 b5 3d
       0.010023489 0.1032738 0.061759043 0.08867066
0002c0 2c 23 22 3d ec d2 e6 3c f5 2d 43 bd 8d d3 c7 bc
       0.039584324 0.028176747 -0.04765125 -0.024392867
0002d0 4d 6e 0a 3e 0d 6e e2 3d 04 b1 42 3d c4 59 8e 3d
       0.13518639 0.11056147 0.047532097 0.06950715
0002e0 e2 8d eb 3d 03 fe 09 bd ed d3 59 bc 03 8d b5 3b
       0.115016714 -0.03368951 -0.013295156 0.0055404915
0002f0 fc 65 0c 3b e2 de 0d 3d 96 3e be 3d 9f bb 17 3e
       0.0021423092 0.034636386 0.09289281 0.14817666
000300 f2 33 85 bd 31 ce 66 3c 2b 25 3f 3d 44 e9 70 bc
       -0.065040484 0.014087246 0.046666306 -0.014704052
000310 00 ef 68 3d 6e 6b 8f be 38 ec 4a bd 10 a3 aa 3c
       0.056868553 -0.2801165 -0.049541682 0.020829707
000320 06 24 d0 bb 5e 39 06 bd 25 cc 23 3d df 34 14 bd
       -0.0063519506 -0.032769553 0.03998961 -0.036183234
000330 33 d9 74 bd 6e f4 44 bd a9 85 5a bd b8 dd 42 3d
       -0.05977745 -0.04808467 -0.053350125 0.04757473
000340 94 4e ed 3d f8 8e 74 bd 86 44 65 bd 28 f0 38 bd
       0.11587253 -0.059706658 -0.055973552 -0.045150906
000350 51 71 8d bd 94 9e b1 3e 47 a0 3a 3d 9b e4 37 3d
       -0.06906379 0.34691298 0.04556301 0.04489575
000360 3c 90 d9 3d b8 87 21 3d 80 49 d9 bc 1f d5 0a 3e
       0.10623214 0.039436072 -0.026524305 0.13557862
000370 d4 92 89 bd e5 1f 23 be 71 a4 e8 3b 79 8e ca 3d
       -0.06717458 -0.15930136 0.007099681 0.09890456
000380 04 0e d8 3b ef 81 e3 bc 43 18 1b 3d 22 a4 10 3e
       0.0065934677 -0.027771918 0.037864935 0.14125112
000390 f4 ea f1 bc ae 9c 5c bd be cb 94 bd ef b5 1d 3e
       -0.02953098 -0.05386036 -0.07265423 0.15401433
0003a0 da e6 b0 bd c9 96 91 bd 21 62 1b 3c c7 df 0b 3e
       -0.086377814 -0.07108838 0.009483845 0.13659583
0003b0 f4 14 3d 3d 56 ef 35 3d 1e 2d d9 bc 04 01 ae 3d
       0.04616256 0.0444177 -0.026510771 0.084962875
0003c0 d1 4d a6 3d 1c fd 84 3d 5e 7e d7 3c f9 5c 4d bd
       0.08120311 0.06493589 0.026305374 -0.050137494
0003d0 39 79 b5 3c 4a 50 82 be ea 0b a6 3c 93 0b 11 bd
       0.02215253 -0.2545188 0.020269353 -0.03541143
0003e0 0a 7a 96 bd 39 8a 30 3d 8e cd 0e bd 03 d3 a6 bd
       -0.07347496 0.04310057 -0.034864 -0.08145716
0003f0 03 8b 8d 3d e6 bc 92 b8 2e 16 7f 3c 6a 9e 40 be
       0.0691128 -6.9970076e-05 0.015569253 -0.1881043

fc1.bias f4 [128]
000000 dd db 53 3d df d4 83 be ac 54 49 be a1 14 49 be
       0.05172335 -0.25748345 -0.19661206 -0.19636776
000010 8f d5 a5 be f2 eb 5e bc 8a 80 52 3c 34 39 87 be
       -0.32389495 -0.013606058 0.012848029 -0.2641083
000020 ab 13 61 bd ad c7 1e 3e e0 f7 50 be f2 43 42 3e
       -0.054950397 0.15505858 -0.20407057 0.18971232
000030 4f 13 46 bd 87 e1 c1 bd 0e 69 0b be e2 ef 36 bc
       -0.048358258 -0.09466844 -0.13614294 -0.011165591
000040 4b 20 84 bd bd b5 29 be 1a fb 50 be a8 23 43 be
       -0.06451472 -0.16573234 -0.20408288 -0.1905657
000050 26 8b 35 be 7d eb 72 be 8d fc 89 be fd 8a d9 bc
       -0.17728862 -0.23722644 -0.26950493 -0.026555533
000060 a3 dd b4 3d 6e 8e d5 3d 47 ab 5a be 48 74 8f 3d
       0.08831336 0.10427557 -0.213544 0.07004601
000070 11 26 8a bd 32 30 48 be 42 63 7a be c9 fa 01 be
       -0.06745542 -0.19549635 -0.24451926 -0.12693323
000080 ce b8 d8 3c d7 18 49 bd b9 03 e8 3d 2b bc 7d be
       0.02645531 -0.049095955 0.11328835 -0.24778812
000090 f7 eb 41 3e 79 8b 2c 3e cf 26 ed bc 1e 09 4f bd
       0.1893767 0.1685008 -0.02894917 -0.050545804
0000a0 28 11 2e 3d 93 38 66 be 2d b0 77 be 0c 9b 18 3e
       0.04249683 -0.22482519 -0.241883 0.14902896
0000b0 7c 64 de bd db 8b 6e be fd f4 95 3c d8 61 a9 bd
       -0.108590096 -0.23295538 0.018305296 -0.08270615
0000c0 79 f8 bf bd 46 e1 bc bd 49 51 5e bc 56 ea ef 3d
       -0.09373564 -0.09222655 -0.013569185 0.11714618
0000d0 ff e4 41 be ca 56 78 3e e5 7c 60 bd a5 ae d2 3d
       -0.18935011 0.24251857 -0.05480661 0.10287217
0000e0 cd 32 78 3c 24 98 88 bc 92 36 a7 3d bf a6 29 bd
       0.015148831 -0.016674109 0.08164705 -0.041418787
0000f0 64 1d 17 3e 5c 4d 99 be 0c 32 ac bc 07 64 1a bd
       0.14757305 -0.29941833 -0.021019958 -0.03769305
000100 54 99 0a be 57 b4 22 3e b1 05 35 3e dc 0d 95 be
       -0.13535053 0.15889107 0.17677952 -0.29112136
000110 7d 0a b5 3d f7 34 1c be 2e 37 02 be 2e 35 8e 3d
       0.08839891 -0.1525458 -0.12716362 0.06943737
000120 ed e7 d7 3d 08 1f d3 3d a3 2a 2a be ee d3 7a be
       0.10542283 0.10308653 -0.16617827 -0.24494907
000130 9b 72 89 3d 12 da a9 bd 4b bd 05 be 53 7d 47 bd
       0.067113124 -0.08293547 -0.13060491 -0.048703503
000140 45 60 7e be 9f e2 db bd 8c 9d fd 3d 4b fb 27 be
       -0.24841411 -0.10736584 0.12383565 -0.16404454
000150 3a 51 af bd 55 f5 e5 bb 15 a6 ae be e5 8a 34 be
       -0.085604146 -0.0070177712 -0.34111086 -0.17631109
000160 6d 0a b5 bd ec 6b dd bd 0f ce 35 3e 4b b3 2a bd
       -0.08839879 -0.108116 0.17754386 -0.041674893
000170 b9 98 da 3c 46 53 71 be db 96 80 3d dd 01 a7 bd
       0.026684152 -0.23566923 0.062787734 -0.08154652
000180 0c 73 96 bd de 2d af bc cd 45 a1 bb 41 36 cd 3d
       -0.07346162 -0.021384176 -0.004921651 0.10020114
000190 15 5d 9a be 79 26 4d 3d 47 57 fa 3d 91 40 40 bc
       -0.3014914 0.05008552 0.12223678 -0.011734144
0001a0 95 aa 93 be 9e 6b 97 bd 1a 59 7a bd 67 d4 94 bd
       -0.2884108 -0.07393573 -0.06112013 -0.07267075
0001b0 f5 a0 9c be 02 31 42 3e be 0e 9a 3e 70 e7 7e 3d
       -0.3059155 0.18964007 0.30089372 0.062232435
0001c0 02 b3 1f 3e d0 4a fe 3d c5 dc 54 be 6f ac 13 be
       0.1559563 0.12416613 -0.20787342 -0.14421247
0001d0 fb 0e c7 bd c0 af f2 3d bf 34 a2 bd c4 74 51 3d
       -0.09719654 0.11849928 -0.07920217 0.051136747
0001e0 33 fe d4 bd 07 c0 01 bd b8 65 78 3d 3a 2a 08 be
       -0.10400047 -0.031677272 0.06064388 -0.13297358
0001f0 3d 48 cf bd 37 d4 cb 3d fa 86 08 3d 5f b0 72 3d
       -0.101212 0.09952586 0.03333185 0.05925023

bn1.weight f4 [128]
000000 23 09 aa 3e 7e a6 03 3f a6 81 1a 3f 00 63 13 3e
       0.33210096 0.5142592 0.6035408 0.14393234
000010 82 aa 1d 3f b6 06 4e 3f 6f aa 58 3f 28 20 3d 3f
       0.615883 0.8047899 0.8463506 0.7387719
000020 29 be 3c 3f 0f 98 2d 3f 72 fa a7 3e 3b 13 fe 3e
       0.7372766 0.6781015 0.32808262 0.49624047
000030 d8 55 ed 3e 46 0b 01 3e e1 74 c1 3e cf 4e ec 3e
       0.46354556 0.12601957 0.37784484 0.46153876
000040 3f 0c 13 3f 58 6b 37 3f 9a 32 ef 3e ce ee 88 3f
       0.5744056 0.7164817 0.46718293 1.0697877
000050 8d 42 6b 3f 58 ce 0f 3f 0a 6c c1 3e 80 f6 85 bc
       0.91898423 0.5617423 0.3777774 -0.016352892
000060 77 03 22 3f 7d bc a0 3d cd 2f b9 3c 55 7a 3c 3f
       0.63286537 0.07848451 0.022605801 0.73624164
000070 48 df c6 3e 1b 44 70 3e 90 54 92 3e 3f 74 a7 3e
       0.38842225 0.2346348 0.2858014 0.32705876
000080 88 0d 28 3f f2 69 4d 3f f7 36 a8 3e 8c b8 95 3e
       0.6564565 0.80239785 0.32854435 0.2924236
000090 0f d7 bf 3e c7 84 7f 3e 67 78 36 3e 9a 1c 2f 3f
       0.37468764 0.24952994 0.17819367 0.6840302
0000a0 ed be 2c 3f 92 8c f0 3d 9d 7a 49 3f c5 cb 7b 3e
       0.6747883 0.11745562 0.7870272 0.2458945
0000b0 03 66 0a 3f 5f a7 a9 3e 1a 96 7f 3f ef 3f e7 3e
       0.5406191 0.33135507 0.9983841 0.45165965
0000c0 d2 52 a6 3e 04 4c 3e 3f c4 64 39 3f ce 7e dc 3e
       0.32485062 0.7433474 0.7241938 0.43065494
0000d0 25 3d a7 3e 51 e0 61 3f 97 b4 0d 3f 97 6a 03 3f
       0.32663837 0.88232905 0.55353683 0.5133452
0000e0 5a 00 01 3f e5 92 ac 3e f5 23 76 3f cb 08 21 3e
       0.5039116 0.33705822 0.96148616 0.1572601
0000f0 e4 58 54 3e 7e bf 3f 3e 57 01 13 3f 9b 79 ad 3e
       0.20737034 0.18725392 0.5742392 0.3388184
000100 72 63 07 3f 30 56 dc 3e f6 98 2c 3f 94 34 09 3e
       0.52886117 0.43034506 0.674209 0.13398963
000110 03 1c 1d 3f ec 47 1b 3d 6c 73 6b 3e e7 09 be 3e
       0.6137087 0.037910387 0.22993249 0.3711693
000120 00 77 bd 3e 59 8a 02 3f 2c 04 d0 3e dd c4 3c 3f
       0.37004852 0.5099235 0.40628183 0.7373789
000130 e4 95 47 3f 45 53 3a 3e a0 51 43 3f 3a 04 41 3f
       0.7796309 0.18195827 0.76296425 0.75397074
000140 c1 1d 7d 3e 07 a7 1d 3f c1 de cf 3d 3a 49 7a 3e
       0.24718381 0.6158299 0.10149909 0.24441996
000150 02 66 71 3e 3a 20 4f 3e 8b 57 3d 3f 40 46 9d 3d
       0.23574069 0.20227137 0.73961705 0.07679415
000160 52 f9 a2 3e ba ae c2 3e 7d 42 01 3e 59 b0 e4 3e
       0.3183084 0.3802393 0.1262302 0.44665793
000170 3c 13 17 3f 23 ca af 3e 50 c5 4c 3f 14 b8 f8 3e
       0.59013724 0.34333906 0.79988575 0.4857794
000180 a0 df 9d 3e 74 15 ff 3e 2b 7f 13 3f 2e 37 2a 3f
       0.30834675 0.49821055 0.5761592 0.6649045
000190 08 2b 0a 3f ea 42 30 3f fd 75 2b 3f ab 7e 2a 3f
       0.5397191 0.688521 0.6697691 0.6659953
0001a0 1f 46 3e 3f a2 e4 da 3e cb ca 08 3f c5 7f ad 3e
       0.74325746 0.42752558 0.5343444 0.33886543
0001b0 3f 92 5b 3e 05 e1 8e 3e 7f 75 41 3f f1 da 90 3e
       0.21442507 0.2790605 0.7556991 0.2829204
0001c0 1e 7e 22 3f 72 7b 09 3f cd c6 98 3d d2 21 f6 3d
       0.6347369 0.5370399 0.07459793 0.120181695
0001d0 a9 41 20 3f ee 76 a2 3d a3 c3 70 3f 00 ba a9 3d
       0.6260019 0.0793284 0.9404852 0.0828743
0001e0 b2 97 f2 3e 9f f0 b1 3e 87 7a 58 3f a3 bc 85 3e
       0.4738136 0.34753892 0.8456196 0.2612048
0001f0 4b cb 86 3e cf f6 00 3f bc 17 e3 3e dc 50 30 3f
       0.26326975 0.503766 0.44354045 0.6887338

bn1.bias f4 [128]
000000 18 6a 76 3d cc ca 58 bd 46 74 15 3e 60 de 29 be
       0.060159773 -0.052927777 0.14595136 -0.16588736
000010 80 c6 87 be dd 12 71 3d 0b ff ef 3d 87 f1 01 3e
       -0.2651863 0.05885588 0.117185675 0.12689792
000020 5d 40 86 bc a8 96 85 3e 2f de f3 3d ec 6b f7 3c
       -0.016388113 0.26091504 0.119076125 0.030202828
000030 6e 3b 3d 3d f9 09 89 3e 1c 25 c4 3d 88 2e 76 3d
       0.046199255 0.2676542 0.095773906 0.06010297
000040 d3 16 2b be 0f c7 c4 3d 38 83 28 bd b7 25 02 3e
       -0.16707925 0.0960828 -0.041140765 0.127097
000050 c4 6d 32 3e c4 fa 11 3e 57 8c 9c 3d f9 bf 9e be
       0.17424685 0.14255816 0.07643955 -0.3100584
000060 e5 ad bb 3c 9e 1c cc 3e a4 c8 de be b3 24 28 bc
       0.022910068 0.39865583 -0.43512452 -0.010262656
000070 2e 98 c3 bc c9 f5 9b 3e a5 17 61 3e 0f 7e bf 3a
       -0.023876276 0.30460957 0.21981676 0.0014609712
000080 b4 29 25 bd 85 82 70 3e bc ab e6 3b b5 31 70 3e
       -0.040322974 0.23487289 0.0070395153 0.23456462
000090 2e 08 2c 3e 11 7f 10 be 94 26 0a 3e e0 0f 83 be
       0.16799995 -0.14110972 0.13491279 -0.2559805
0000a0 b6 6d a8 3c 69 e8 85 3e 40 7c 5d bd c3 65 22 be
       0.020560127 0.26153877 -0.054073572 -0.15859132
0000b0 fe 22 5a 3d 25 1a a6 be ac c8 66 3e b7 90 cf bd
       0.053256027 -0.32441822 0.22537488 -0.10135024
0000c0 d7 9f b3 bd 0e cf 4b 3e f7 b4 8b 3d 9e cc 4e be
       -0.087707214 0.19903204 0.06821626 -0.20195243
0000d0 0b c0 3a 3d c2 29 a3 bd 91 38 0c 3e fe 65 b9 3d
       0.045593303 -0.07966949 0.13693453 0.090526566
0000e0 92 e0 04 3e f0 db 38 bc 7b 63 25 bd ab 2e 6a be
       0.12976292 -0.011282906 -0.040378075 -0.22869365
0000f0 04 ea 16 3d 29 49 17 3e b4 ea 33 bd 2a 4d 92 3e
       0.03684427 0.14774002 -0.043925002 0.28574497
000100 a1 29 8d 3e 85 b8 12 be f3 42 76 be 5e f1 12 be
       0.27570823 -0.14328201 -0.24048977 -0.14349887
000110 d2 99 5a 3e c1 a9 a9 be ca fe 81 3e aa 7e 4e be
       0.2134774 -0.33137324 0.253897 -0.20165506
000120 db c8 df 3d 7c 05 84 bc 00 84 cd 3c 0a cd 55 3e
       0.10926982 -0.016115896 0.025087357 0.20878997
000130 e1 ef eb bd 3b 50 73 3e e6 3a 4d 3e 15 26 44 3e
       -0.11520363 0.23761074 0.20041999 0.19155152
000140 73 b1 31 bd 25 ba 8a 3d bb 9c db be 0c 55 71 be
       -0.04338212 0.067737855 -0.42893013 -0.23567599
000150 ea 3e 49 bd 8b 68 b9 3e b0 ee 9b 3e 74 e5 77 be
       -0.049132265 0.36212572 0.30455542 -0.24208623
000160 3d 73 ed 3c 54 8a 83 be 8c cd b3 3d 99 b7 20 be
       0.028985614 -0.25691473 0.08779439 -0.15695037
000170 28 6a c9 3c 65 8f 0c 3e 4f 53 1f bd 1d ff 5d 3e
       0.024586752 0.13726576 -0.03889781 0.21679349
000180 70 5b 30 be 06 a1 4f 3e 6f 58 a9 3e e2 65 b0 bd
       -0.1722238 0.2027627 0.33075282 -0.086131826
000190 ed 82 40 3e 4e 6d a9 bd 72 ab a5 bd 31 bf 5d be
       0.18799944 -0.08272801 -0.08089341 -0.21654965
0001a0 8e 65 ea bc e1 d6 dc 3c 6a 83 54 be 14 46 88 3e
       -0.028612878 0.026957931 -0.20753255 0.26615965
0001b0 ca b7 37 be b5 8f 7f 3e f5 ab 93 be ae a8 af 3e
       -0.17941204 0.24957164 -0.2884213 0.3430838
0001c0 1b cf ec 3d 1f 45 0b 3e fb 85 72 be 07 2c a4 be
       0.1156294 0.13600586 -0.23683922 -0.3206484
0001d0 42 93 93 bd 3c 04 36 3d 15 13 20 bd b8 d2 db be
       -0.072058216 0.044437632 -0.039080698 -0.42934203
0001e0 9a 14 aa bd 66 e1 30 be 01 a6 79 be f9 33 63 be
       -0.08304711 -0.17273483 -0.24379732 -0.22187795
0001f0 12 c7 ce 3d 15 db 84 bc 97 f4 29 3e 0b d7 87 be
       0.100965634 -0.016217748 0.1659721 -0.26531252

bn1.running_mean f4 [128]
000000 a5 d6 5d 3e 60 a1 cb 3f e1 a0 6c 3f 93 ac 53 40
       0.21663912 1.5908623 0.9243298 3.307408
000010 92 a0 ab 3e de 1d b2 3e 04 00 00 00 aa e7 9b 3e
       0.33520943 0.34788412 6e-45 0.30450183
000020 c1 27 ac 3d 6d d4 ff 3e 4c 3b e0 3e db 91 3f 3f
       0.0840602 0.49966756 0.4379524 0.7483193
000030 b6 b4 dc 3d 69 a0 e9 3e 4d 45 d2 3d b4 b8 ca 3d
       0.107766554 0.45630196 0.10267124 0.098985106
000040 23 c0 29 40 d1 0c 61 3f 35 50 eb 3d 63 69 a1 3e
       2.652352 0.8791018 0.11489908 0.31525716
000050 db 77 f0 3f 36 6b 33 3e e1 4a 89 3d 6a 7e 1a 3f
       1.8786577 0.17521366 0.06703735 0.6034914
000060 fb 9e 0c 3f ad ab 1f 40 ab 9e 00 3d d8 1a 04 40
       0.54930085 2.4948533 0.031401318 2.0641384
000070 eb f2 9a 3d af 34 d1 3e 04 00 00 00 26 e5 e9 3e
       0.07565864 0.40860507 6e-45 0.4568264
000080 2f 51 87 3f 01 7f 03 3e c8 41 8f 3f 67 86 85 3e
       1.057165 0.12841417 1.119195 0.26079103
000090 e7 0b f2 3f 47 bc 6f 40 c7 4a 3c 3f 65 4f 81 3f
       1.8909882 3.7458665 0.735516 1.0102354
0000a0 80 89 b2 3e 26 6d a5 2a 1f 58 01 3e 70 f0 44 3f
       0.3487053 2.9385625e-13 0.12631272 0.7692938
0000b0 4f b8 78 3f 04 00 00 00 c6 7b c5 3e d7 5f 39 3f
       0.9715623 6e-45 0.38570994 0.72411865
0000c0 bd be f1 3f 9d 0f 41 3e 18 d4 8e 3e 6e 5e aa 3d
       1.8886334 0.18853612 0.2789619 0.08318792
0000d0 68 31 c8 3c 8c 3a ba 3f a7 e8 fc 3e 96 19 d4 3d
       0.024437621 1.4549117 0.4939625 0.10356443
0000e0 91 ff 8d 3e a8 df 56 3e 11 9d bd 3f 04 00 00 00
       0.27734044 0.20983756 1.4813558 6e-45
0000f0 3e ff 32 3f df be ad 3b b7 a2 9a 3f b9 fa 28 3c
       0.6992072 0.0053022946 1.2080907 0.010313683
000100 3d af 2d 3f d4 f5 4c 3f 77 51 cd 3e 4a aa 0d 3d
       0.6784552 0.80062604 0.40101215 0.03458623
000110 b8 a8 5e 3f ab 00 39 3e c4 21 9d 3e 32 52 8b 3f
       0.86976194 0.18066661 0.30689824 1.0884459
000120 8b b0 d2 3e de 08 28 3f 5f ba 44 3f 97 31 2a 3f
       0.41150317 0.6563853 0.7684688 0.6648192
000130 17 6e e3 3f 2e 74 0c 3e 05 41 0a 3f bd cc f8 3d
       1.7767972 0.13716194 0.5400546 0.12148426
000140 2b c9 23 3e 1b 87 d0 3f f1 53 48 40 c9 c4 1b 3f
       0.15994708 1.6291231 3.1301234 0.60847145
000150 42 f2 7d 3e ea 22 d5 3b 46 d7 3f 3d 97 ce 29 3e
       0.24799445 0.006504406 0.04683616 0.16582714
000160 91 65 88 3e f5 27 7b 3e 87 5b 89 3e d8 e4 29 40
       0.2663999 0.24526961 0.26827642 2.6545925
000170 e6 26 79 3d f7 46 7c 3b d5 18 d6 3d d6 cd c9 3f
       0.060828112 0.0038494447 0.10453955 1.5765941
000180 e3 ac 09 3f 33 e8 00 3f fc 1c c1 3d ab 91 03 40
       0.5377943 0.5035431 0.094293565 2.0557659
000190 6e 94 80 3e c7 df 20 3f 2c c5 80 40 00 30 da 3f
       0.25113243 0.6284146 4.024069 1.7045898
0001a0 e8 b8 68 3e 45 ba f9 3e 9f 04 cf 3d 87 f3 c6 3e
       0.22726786 0.48774925 0.10108303 0.38857672
0001b0 0a 35 b1 3d f4 f3 04 3f 29 75 75 40 21 3c b7 3f
       0.086526945 0.5193474 3.835276 1.4315225
0001c0 10 db 0c 40 e7 d2 aa 40 c1 e5 b3 38 df 1d 3d 3d
       2.2008705 5.338245 8.57818e-05 0.046171065
0001d0 1a 80 b8 3f 25 b4 07 40 f1 a9 fe 3b 77 2d 91 3e
       1.4414093 2.1203701 0.0077717234 0.28355
0001e0 fd 94 56 40 8e d5 02 40 bf 18 a1 3e 77 e7 1a 3e
       3.3528435 2.0442843 0.31464192 0.1512736
0001f0 0e 95 a6 3e 24 9f b4 3e d2 d9 7b 3e ca e8 2e 40
       0.32535595 0.35277665 0.2459481 2.7329583

bn1.running_var f4 [128]
000000 10 ee ad 3e bb fe f3 3f c9 f5 ad 3f d1 ff fe 3f
       0.3397069 1.9062113 1.3590633 1.9921819
000010 3c 29 8b 3e 13 73 d5 3e 04 00 00 00 0d 33 ad 3f
       0.27179897 0.41689357 6e-45 1.3531204
000020 0a d7 60 3d 0d cf a4 3f 51 61 75 3f 88 ca 0d 40
       0.054892577 1.2875687 0.9585162 2.2154865
000030 a6 6c c7 3d 17 81 9a 3f f3 6e f7 3d fe af 35 3d
       0.0973752 1.2070645 0.12081709 0.044357292
000040 a1 68 94 3f 44 7f 0a 40 db b3 41 3e 6b 57 01 3e
       1.159443 2.1640177 0.18916266 0.12631004
000050 13 84 93 40 2c ad 91 3e cf 53 7f 3d f3 4e 8a 40
       4.6098723 0.28452432 0.062335785 4.3221374
000060 65 2b 21 3f c1 db bf 40 b1 e7 7b 3d 1a 53 08 3f
       0.6295684 5.9955754 0.061500255 0.532518
000070 d6 2e c9 3d 49 ee f6 3e 04 00 00 00 26 bc fb 3f
       0.09823386 0.48228672 6e-45 1.9666793
000080 f5 96 03 40 90 5d 50 3e 84 0f 99 40 8c 8b 93 3f
       2.0560887 0.20348191 4.783144 1.1526961
000090 ba 44 cf 3f f1 74 cc 3f 83 d8 35 3f cd 53 3d 3f
       1.6192849 1.5973188 0.71033496 0.73955995
0000a0 9d 9e 52 3f 51 45 11 29 65 80 e5 3d b4 1d 71 40
       0.82273275 3.225659e-14 0.1120613 3.767438
0000b0 69 8c 9d 3f 04 00 00 00 bd d0 8e 3e ee 33 c5 3f
       1.2308475 6e-45 0.2789363 1.5406473
0000c0 a0 a0 3c 40 76 a5 72 3d 63 7c a3 3e b0 d3 39 3e
       2.9473038 0.059239827 0.31930837 0.18147159
0000d0 d7 bb e2 3c ba 77 a7 3e 46 e8 37 3f 72 b8 d1 3d
       0.02767746 0.32708532 0.71838796 0.10240258
0000e0 d9 46 1c 3f 8b 20 ad 3e 13 2e bd 3f 04 00 00 00
       0.61045605 0.3381389 1.4779686 6e-45
0000f0 b5 18 9a 3f 73 16 bf 3b 25 3a a1 40 1f 48 1b 3c
       1.203879 0.0058315336 5.0383477 0.009477644
000100 73 4a 4a 40 b0 8a 8f 3e e5 0e bb 3e 61 fb 63 3d
       3.160794 0.28035498 0.365348 0.055659655
000110 89 86 ba 40 72 30 e6 3e ae fc 68 3f 95 02 fc 40
       5.8289227 0.44958836 0.9101056 7.875315
000120 d4 f8 e7 3f 29 89 2b 40 16 39 1d 3f 0c 24 44 40
       1.8122811 2.6802466 0.6141523 3.0647001
000130 e5 5a 34 40 0c 17 aa 3e 78 aa 62 3f 34 be fa 3d
       2.8180478 0.33220708 0.88541365 0.122433096
000140 15 c1 d6 3e ae e1 3e 40 a9 60 46 40 b4 e0 8b 3f
       0.41944185 2.9825244 3.0996497 1.0927949
000150 68 da 8f 3e 3d 7a ef 3b 36 65 c2 3c 4d da fd 3e
       0.28096318 0.007308273 0.023729902 0.49580613
000160 56 fa b1 3e 49 93 28 3f f8 31 87 3f 95 50 f0 40
       0.34761304 0.6584974 1.0562124 7.5098367
000170 2f 81 a2 3d 75 f6 c2 3b 23 78 36 3e 14 0a a8 40
       0.07934796 0.00594979 0.17819266 5.2512302
000180 a8 ca 2b 3f 61 4e 1f 3f 13 04 39 3d e8 a9 33 3f
       0.67106104 0.6222897 0.0451699 0.7018113
000190 3b 57 6a 3e 58 64 a0 3f ed 3c 10 41 45 2f 85 40
       0.22884838 1.2530622 9.014874 4.16202
0001a0 d0 5f c5 3e ba 5d 72 3f 52 50 a5 3d 32 08 0a 3f
       0.38549662 0.94674265 0.080719605 0.53918755
0001b0 f8 9a 81 3d 1a 90 e2 3f 88 7a 3e 40 80 a0 2f 41
       0.06328386 1.7700226 2.9762287 10.976685
0001c0 af 33 9c 3f 81 7e 82 40 6b 5e 48 37 b4 c3 43 3d
       1.2203273 4.0779424 1.1942912e-05 0.04779406
0001d0 30 b4 3a 40 5f 77 c1 40 0d 78 cd 3b b7 ce 29 3f
       2.9172478 6.0458217 0.0062704147 0.66331047
0001e0 94 cc 67 40 3e ce 52 40 a3 ce ad 3e 0c 12 e9 3d
       3.6218615 3.293838 0.33946714 0.11380395
0001f0 1d da 2f 3f 74 0f 10 3f 42 7a 34 3f de c5 23 40
       0.6869219 0.5627358 0.7049905 2.5589519

fc2.weight f4 [128, 128]
000000 c0 5d 68 3d 37 5c 58 be 74 dc 43 bd bb 4a 1d 3d
       0.056730032 -0.21128927 -0.047817662 0.038401347
000010 c3 a7 57 be bf a7 8e 3c 54 12 fc bd cb f1 af 3d
       -0.2106009 0.017413972 -0.12308183 0.0859104
000020 e5 22 cf 3d be bc 06 bd de 92 1d bc 05 e0 00 3d
       0.101140775 -0.032894842 -0.009617535 0.03146364
000030 5a 7e d0 3d d9 8e b5 bd 07 01 76 3e 48 fa 07 be
       0.1018035 -0.08865137 0.2402383 -0.13279068
000040 8a bd b2 3d f1 8d 3a 3d 4a 90 da 3d fb 6d de bd
       0.08727558 0.045545522 0.10672052 -0.10860821
000050 0c c8 61 3c 44 6b b6 3c bb cf a4 3d ae de 1c 3e
       0.013780605 0.022267945 0.08047434 0.1531932
000060 9d 82 eb bc 59 92 45 be e7 0c 17 3e 5d 50 d0 bd
       -0.028748805 -0.19294108 0.14751016 -0.10171578
000070 e8 41 6a bd a1 57 02 bd 37 2e 8a be fa 6f d1 3d
       -0.05719176 -0.03182185 -0.26988384 0.10226436
000080 a4 4e 92 3c ef 61 09 bd a8 4b e6 3c f4 0d 1b be
       0.017859764 -0.033540662 0.028112248 -0.15142041
000090 5a c8 d8 bd 5e ef 83 3d ef dc 0b be 99 a5 81 3d
       -0.10585089 0.0644214 -0.13658498 0.06330413
0000a0 9c 99 47 bd b9 4d 43 3c 89 e9 cc bd 9e 57 b4 3d
       -0.048730478 0.011920386 -0.10005481 0.08805774
0000b0 1c c1 fa bd 51 09 41 3e 4f 4b 3b 3d f6 a3 07 be
       -0.12243864 0.1885121 0.045726117 -0.1324614
0000c0 bf 90 47 3d f2 58 32 3d d0 e9 59 3b a7 f3 1a 3d
       0.048722025 0.043541856 0.0033250935 0.03783002
0000d0 aa 9e ad bb 23 1e 9a bd fe 04 01 3e c2 1a df 3c
       -0.0052984552 -0.075252794 0.1259956 0.027234439
0000e0 81 d7 10 bd 07 2a 00 bd 29 fe c5 3d 7e 37 6c 3d
       -0.03536177 -0.03129008 0.09667618 0.05767011
0000f0 42 3f fd 3d 7b b5 13 be 6f ed 91 bc 8c d5 ea bd
       0.12365581 -0.14424698 -0.017813412 -0.11466512
000100 7d a8 12 bd 0d d1 6b 3c 46 28 c0 3c ce 25 68 3d
       -0.035805214 0.014393103 0.023456704 0.05667668
000110 2f 30 a6 bc ea db 7a bc 22 b9 a6 3c bd cf f3 3b
       -0.020286648 -0.015311221 0.02035195 0.007440536
000120 db 0b 80 3c e9 3b cd 3c a4 a8 12 bd a7 d2 16 3d
       0.015630653 0.025052981 -0.03580536 0.036821987
000130 bd 13 c5 bd 1e 6e d1 bd 49 f8 6a bd 32 eb 9d 3c
       -0.096229054 -0.10226081 -0.05736569 0.019277189
000140 30 f2 02 bd dd a2 fa bb d4 23 42 3d a8 e3 27 3e
       -0.03196925 -0.0076488093 0.04739745 0.16395438
000150 92 e9 36 3d 5f 16 ce 3c 01 38 ee 3d 44 55 13 3c
       0.044656344 0.025157152 0.11631776 0.008992497
000160 15 da bc bd 5b 8d 38 3b 45 d7 96 bd 78 ed 3c bd
       -0.09221283 0.0028160426 -0.07365278 -0.046124905
000170 81 e5 ff bc ed 73 93 3d 8c 7a a0 bd 9c ff 91 bd
       -0.031237366 0.071998455 -0.07835874 -0.07128832
000180 ef 4e bb 3d 3b eb 68 bd 17 4b 06 be ec 59 84 bd
       0.09145915 -0.05686496 -0.13114582 -0.06462464
000190 98 05 d3 bd fd 23 94 bc f6 42 65 bb b3 5e 35 3c
       -0.10303801 -0.018083567 -0.0034982539 0.011069941
0001a0 8b eb d3 3c bc 0d 16 39 e8 0a 09 3d fd 99 51 bd
       0.025869152 0.00014310231 0.033457667 -0.051172245
0001b0 10 9e f4 bd ce 1e e1 bc 79 c9 81 bd 87 ba 40 3a
       -0.119442105 -0.02748051 -0.06337256 0.00073520135
0001c0 67 33 3d 3d 0c f1 41 bd b0 1f 83 bd cf da e0 3d
       0.0461916 -0.04734902 -0.06402528 0.109792344
0001d0 77 f5 1d bd bd b1 1a bd 73 9a 66 ba 5a 95 32 3e
       -0.03856417 -0.03776716 -0.00087968184 0.17439786
0001e0 89 78 4f bd fc bf 91 bd 64 32 10 be d4 37 87 3e
       -0.05065206 -0.07116696 -0.14081722 0.2640978
0001f0 e4 c2 aa 3c 73 5f 99 bd 1c 9b 9e 3c b0 25 a1 bd
       0.020844884 -0.074889086 0.019361071 -0.078685164
000200 39 ad 8a 3c 04 ba 95 3c 8f e0 8b bd 63 88 77 3d
       0.016928302 0.018277176 -0.068299405 0.060432803
000210 09 83 7b 3d 5a ea ae 3c 02 60 1f bc cc 62 37 bd
       0.06140426 0.021351982 -0.00972748 -0.044771954
000220 18 f0 fa 3c 7c 6f bc bd 6e 33 04 3d ee 64 80 3d
       0.030632064 -0.092009515 0.03227561 0.06269251
000230 81 12 8b bd cd be 1e be 01 ab 37 be 7a 2b 72 3c
       -0.06790639 -0.15502472 -0.17936327 0.014780873
000240 9a a4 a5 3d 03 c3 cb 3c a9 00 2c 3d f4 50 90 bd
       0.08088036 0.024873262 0.041992817 -0.070466906
000250 52 fc e0 bd 4f 42 11 3c 7a 8d 38 bd 77 0a 18 3e
       -0.10985626 0.008865907 -0.045056798 0.14847742
000260 0c b4 9c 3d e0 29 35 be 45 68 e8 3c 20 a2 5c bb
       0.07651529 -0.17691755 0.028370032 -0.003366597
000270 53 2f 11 bc 15 d2 5b be a4 50 a3 bd 7b 8b d1 3c
       -0.008861381 -0.21466859 -0.07974365 0.025579205
000280 da d0 e6 bc 6e 19 a1 bc bb 69 02 bd 2c b4 86 3c
       -0.02817576 -0.019665446 -0.031839114 0.016443335
000290 93 2e 8c bd 55 bb 05 3e ce 0c e6 bd 14 e1 34 ba
       -0.06844821 0.13059743 -0.11232911 -0.00068999943
0002a0 e7 b0 e1 bc 17 e1 93 bc d4 4f c7 3c ef 77 96 3d
       -0.027550174 -0.018051667 0.024330057 0.07347094
0002b0 3d 2b 9d bc ee 8d 2f 3d 46 44 39 bd 36 39 2b bc
       -0.019185657 0.042859964 -0.045231126 -0.010450652
0002c0 28 14 ab 3d 35 01 19 be 17 e0 2c 3d 03 a8 41 3d
       0.08353454 -0.14941867 0.042205896 0.04727937
0002d0 25 72 57 3d 37 16 0b bd 36 36 64 3c 5c 53 0c 3b
       0.05259909 -0.033956733 0.0139289405 0.002141199
0002e0 9c ba 15 bc 56 49 b5 3d 97 7a c3 3c 24 1f b5 3d
       -0.009138729 0.08851878 0.023862166 0.0884383
0002f0 7e 2c 8b 3d ee 1e df bd 9b 7d 6b 3d 91 30 b3 bd
       0.067955956 -0.10894571 0.057492834 -0.08749498
000300 b7 3f 30 bd ef 6f 60 3d 0c 86 a2 3d de 31 2a 3c
       -0.043029513 0.05479425 0.07935724 0.010387866
000310 65 c8 9b 3c 2a a7 6e 3e b8 df ff bd 4a 86 93 3d
       0.019016454 0.23305956 -0.12493843 0.07203348
000320 6f ec 0f 3d 09 79 c1 bc 02 de 47 bd 81 af 68 3d
       0.03513759 -0.023617284 -0.048795708 0.056808
000330 f6 07 19 bd aa 49 c8 bd fe 97 8f ba 52 59 78 bd
       -0.037361108 -0.09779675 -0.0010955331 -0.060632057
000340 cf 21 14 3d f3 5e c9 bc 98 a9 3e 3d 97 7c c1 bb
       0.036165055 -0.024581408 0.046548456 -0.005904745
000350 6d b9 61 3d ff 07 2b be 42 5f c7 bd 7e cf 51 bd
       0.055108476 -0.16702269 -0.09734966 -0.05122327
000360 f3 6a 18 bd f4 06 4b 3d 68 fd bb bc ca 25 ba 3d
       -0.03721137 0.049567178 -0.022947982 0.09089239
000370 9d 81 31 3d 91 9a 19 bd f7 fd 7e bc 47 31 26 be
       0.0433365 -0.03750092 -0.01556348 -0.16229735
000380 d9 78 42 3d 3c 69 ba bd 09 cf ff 3c cd 12 18 bd
       0.04747853 -0.09102103 0.031226652 -0.037127305
000390 7c d6 c2 bd b6 a9 e5 bc d3 aa c1 3d d7 1a e5 3b
       -0.09513566 -0.028035026 0.0945641 0.006991725
0003a0 77 79 7c 3c 55 7c ac bb 42 c3 1c 3d 0d 50 21 be
       0.015409819 -0.005263845 0.03827215 -0.15753193
0003b0 1e 77 a9 3d eb 9f b5 bd 8a 2c a3 bc fb 0a 51 bd
       0.08274673 -0.088683926 -0.019918699 -0.051035862
0003c0 3a 99 87 3b 26 2f 4a bd f3 64 c2 3d af 81 f9 bb
       0.004138139 -0.04936137 0.09491911 -0.0076143364
0003d0 cf af e4 b7 01 ac ae bd 15 7f c3 3c bb bb f1 3d
       -2.7261585e-05 -0.08528901 0.023864308 0.11803385
0003e0 ad 53 2b 3d 6e c6 e2 3c 30 ec 06 3c 60 9e 86 3d
       0.041827846 0.02768251 0.008235022 0.065731764
0003f0 ee 81 a8 bd 44 5b 85 3d a7 ca 80 bb 62 8e b1 3a
       -0.08227907 0.06511548 -0.003930408 0.0013546462

fc2.bias f4 [128]
000000 ce 6e 0d bd 58 30 b5 bd c1 c0 1c be 0b c0 bb 3d
       -0.0345295 -0.088471115 -0.15307905 0.09167489
000010 f5 86 37 bd 24 b4 90 bd 47 51 06 3e 5c cf 5b be
       -0.04480644 -0.07065609 0.13116942 -0.2146582
000020 e8 bc ac bd 37 a8 da 3d fb fa 88 3c 81 1b f0 bd
       -0.084344685 0.10676616 0.01672124 -0.11723996
000030 dc d4 ed bd b9 7f 4e bd 2d ea 35 3d db d4 0a be
       -0.11612865 -0.050414775 0.04441278 -0.1355776
000040 a1 92 ca bc c3 ce f1 bd 47 80 28 be 69 08 f3 bc
       -0.024728121 -0.11807015 -0.16455184 -0.029667096
000050 47 0d 11 be 39 08 39 be 85 1b 87 bc 27 4b ab bd
       -0.14165221 -0.18069543 -0.016492615 -0.083639435
000060 56 9c a3 3d 23 2b e1 bc f8 90 85 3c fb 0e da bd
       0.07988803 -0.02748639 0.016304478 -0.106473885
000070 4a 6d 01 be e3 10 90 3d f8 bd df bd 09 fd 36 be
       -0.12639347 0.07034471 -0.109249055 -0.17869963
000080 8a d5 ac bd fc c4 a4 3c 81 57 2e be 4e 54 22 be
       -0.08439167 0.02011346 -0.17025568 -0.15852472
000090 13 20 c0 bd f9 60 a9 bc 99 56 05 be 74 78 8c bd
       -0.09381118 -0.020676123 -0.13021316 -0.06858912
0000a0 35 84 05 be 79 97 96 bd a0 a4 14 be 06 e7 e1 bd
       -0.13038714 -0.0735311 -0.14515924 -0.11030392
0000b0 cc 16 3f 3d c5 14 ce bd bd a8 cd bd d1 71 53 bc
       0.0466526 -0.10062555 -0.1004195 -0.012905554
0000c0 4a 16 23 be 14 2f aa bd a4 eb d4 bd e2 9f b6 bd
       -0.15926471 -0.08309761 -0.103965074 -0.08917214
0000d0 dc d2 ca bd 72 51 c5 bd 5a dc 50 be c9 7f 07 be
       -0.099034995 -0.09634675 -0.20396557 -0.1323234
0000e0 a2 cf cd 3c 4f 8f eb bc 66 12 a3 bc 32 30 12 be
       0.025123421 -0.028754858 -0.019906234 -0.14276198
0000f0 7c 75 8a bd a5 8f 05 be a5 d9 63 bc 61 11 07 be
       -0.067606896 -0.13043077 -0.013906871 -0.13190223
000100 86 52 c4 bd e8 6b 91 bd f4 6b 71 be ed 81 f9 bd
       -0.095860526 -0.071006596 -0.23576337 -0.121829845
000110 ce 89 25 be 81 88 a7 bd ae f4 30 be 6b c9 4e bd
       -0.1616585 -0.08180333 -0.17280838 -0.050485056
000120 f8 7d bf bd 5a 96 08 be f2 30 93 bd e9 01 9c 3d
       -0.093501985 -0.13338605 -0.0718707 0.07617552
000130 59 8b 6d bd 1b 22 98 3c b0 a6 f8 bd 75 e7 74 3e
       -0.05799422 0.01857095 -0.12141168 0.23916419
000140 6f ad 1e 3c 1c eb be 3d 89 a6 d8 bd a4 c0 19 3e
       0.0096849045 0.09322187 -0.10578639 0.15014893
000150 92 bf 17 be f3 38 c5 bd 1c fb 57 3c 16 1f 63 3d
       -0.14819172 -0.09630003 0.013182428 0.055449568
000160 90 22 8f bd 9e 92 0f be 22 be 3a be 82 99 08 bc
       -0.06989014 -0.14020774 -0.18236592 -0.00833738
000170 a1 87 35 be 61 c0 dc bd 8b 8e 14 be 1e 92 f8 3b
       -0.1772752 -0.10778881 -0.14507501 0.007585778
000180 8d 9b aa bd 7b fb ca bd 4e 29 96 bc e3 9b e1 bd
       -0.0833045 -0.09911247 -0.018330242 -0.11016061
000190 ab 8c 6f 3d 6b b7 d8 bd 7c 65 c7 bd 57 b6 8e bd
       0.05848376 -0.10581859 -0.097361535 -0.06968372
0001a0 16 fc ae bd 72 37 26 be de 94 48 bc 41 04 4b 3d
       -0.08544175 -0.16232088 -0.012242524 0.049564604
0001b0 75 25 1a be 9f e3 e0 ba a7 27 8b bd a2 a7 43 bd
       -0.15053351 -0.001715768 -0.067946725 -0.04776729
0001c0 7f f5 8f bd 6c 86 1a be 6a 75 cb bd f8 5f 68 bc
       -0.070292465 -0.1509034 -0.09934504 -0.014183037
0001d0 9c 46 04 bd 25 20 3f be b0 f6 d7 bd 97 62 fd bd
       -0.0322939 -0.18664606 -0.10545099 -0.1237232
0001e0 be d8 f4 bd 05 67 c0 bd 0d 4c 09 be 62 39 c1 bd
       -0.11955403 -0.093946494 -0.13407917 -0.09434773
0001f0 b3 e8 b5 bd 6e 58 9c bc 53 f7 a4 bd 8c e8 d2 3c
       -0.088822745 -0.019085135 -0.08054986 0.025745653

bn2.weight f4 [128]
000000 a1 60 ae 3f 77 41 fd 3e b6 bf 44 3f b7 4a 46 3f
       1.3623239 0.49464008 0.7685503 0.77457756
000010 43 91 7e 3f e1 bc 89 3f 62 ac 2c 3f 6c 64 28 3f
       0.994404 1.0760766 0.67450535 0.6577823
000020 22 c7 ba 3f a3 b9 2f 3f 56 b5 0d 3f fa 65 54 3f
       1.459202 0.68642634 0.5535482 0.82968104
000030 33 e2 a1 3f 20 68 06 3f 95 f5 f9 3e fd 57 a5 3f
       1.2647156 0.5250263 0.48820177 1.2917477
000040 25 f7 a0 3f e3 eb 36 3f e0 e4 c1 3f e6 d8 6b 3f
       1.2575423 0.71453685 1.5147972 0.92127836
000050 af 7d 8a 3e 18 96 33 3f 59 d2 9f 3f 23 3d 76 3f
       0.27049014 0.701509 1.2486068 0.9618704
000060 f7 9e 0d 3f 4b ea 5d 3f 91 f3 2c 3f a5 fc bf 3e
       0.55320686 0.8668563 0.6755915 0.3749744
000070 a0 cb 82 3f d3 5b 5f 3f fc 5b 07 3f 92 9a 01 3f
       1.0218391 0.8724949 0.5287473 0.5062648
000080 60 46 8c 3f cf 34 d2 3f 3e dc a6 3f 38 08 83 3f
       1.0958977 1.6422366 1.3035963 1.0236883
000090 a2 ae a2 3f 61 84 8d 3f 24 c2 2d 3f f3 0b 10 3f
       1.2709544 1.1056024 0.6787436 0.56268233
0000a0 96 d1 63 3f 3a 79 05 3f 2a 8f 55 3f ce 5e f9 3e
       0.8899168 0.521381 0.83421576 0.48705143
0000b0 0f 9b a3 3f 56 a4 40 3f 7a de 59 3f be bc b8 3f
       1.2781695 0.75250757 0.851051 1.44326
0000c0 c4 ab 59 3f f1 80 10 3f c3 bf a6 3f 50 7f b9 3f
       0.8502772 0.5644675 1.3027271 1.4491978
0000d0 b8 b4 14 3f 67 ee 68 3f 8c 2f f6 3e e5 70 af 3f
       0.58088255 0.90988773 0.4808315 1.3706328
0000e0 47 72 8c 3f e9 68 b7 3e d5 84 23 3f 98 fc a1 3f
       1.0972375 0.35822228 0.6387456 1.265521
0000f0 74 19 2b 3f 8e 88 cc 3f 6a ae 71 3f 3d 33 03 3f
       0.66835713 1.5979173 0.9440676 0.5125006
000100 e0 a7 84 3f f9 83 52 3f 7c 75 d3 3e 2a 42 61 3f
       1.0363731 0.82232624 0.4130057 0.87991583
000110 7b fb a3 3f 6c 14 9c 3f 43 12 13 3f 0e 01 bc 3f
       1.2811121 1.2193732 0.5744974 1.4687822
000120 5c ca 8d 3f a8 9a 0a 3f cd 7f 75 3f 3b 71 94 3f
       1.107738 0.54142237 0.95898134 1.1597055
000130 b9 48 8c 3f c2 f7 a0 3f 4f d8 93 3f 98 10 94 3e
       1.0959693 1.257561 1.1550387 0.2891891
000140 a0 80 be 3e d7 92 ad 3f 13 5d 6a 3f ed cf 69 3f
       0.37207508 1.3560437 0.9154827 0.91332895
000150 1c 1f 75 3f 7b 53 80 3f 2c 82 c4 3f ae 83 ce 3f
       0.95750594 1.0025476 1.5352225 1.6133935
000160 e9 e5 83 3f 3d bf b9 3f 36 a3 9e 3f e6 b6 a5 3f
       1.0304538 1.4511486 1.2393558 1.2946441
000170 92 3f 1e 3f 80 06 1b 3f e7 01 15 3f 57 c6 22 3f
       0.6181575 0.60556793 0.5820603 0.6358389
000180 0f 12 57 3f d2 f4 90 3f 39 10 66 3f 87 51 07 3f
       0.8401193 1.1324713 0.89868504 0.52858776
000190 67 15 2d 3f 31 d4 7e 3f a1 57 81 3f d5 1f 2c 3f
       0.6761078 0.9954253 1.0104867 0.6723607
0001a0 e4 12 99 3f 40 80 7e 3f f9 1b 7d 3f 21 0f 9d 3f
       1.195889 0.99414444 0.9887081 1.2270242
0001b0 18 92 92 3f 8e 5c 9a 3f e2 e7 73 3f ee fe 13 3f
       1.1450834 1.2059495 0.952757 0.57810867
0001c0 42 9b 0e 3f 70 8e fe 3e f9 94 21 3f f4 bb 2b 3f
       0.55705655 0.49718046 0.6311794 0.6708367
0001d0 3c 3b 94 3f 08 cc c9 3e 80 94 5a 3f 87 06 34 3f
       1.1580577 0.39413476 0.85382843 0.7032246
0001e0 cc b9 54 3f ea 6a 21 3f 20 72 a6 3e 76 fa 25 3f
       0.83096004 0.6305376 0.32508945 0.648353
0001f0 a8 7b 76 3f 3b 2a 24 3f af 34 d9 3e 19 de 19 3f
       0.96282434 0.6412694 0.42423007 0.6010452

bn2.bias f4 [128]
000000 36 0f f6 3d 19 7b f3 bd d7 a1 9d 3d 30 6e 84 3d
       0.1201462 -0.118887134 0.07696884 0.06466329
000010 9b eb 02 be bb 80 c0 3d c8 c7 c9 bd 0d 3b 18 be
       -0.12785189 0.093995534 -0.098525584 -0.14866276
000020 f9 79 04 3e 23 e4 00 be f7 d4 00 3e c0 62 4c 3e
       0.12937154 -0.12587027 0.1258124 0.19959545
000030 02 c2 10 be 32 ff 28 be f2 f6 2f 3e 34 ae 47 be
       -0.14136508 -0.165036 0.17184046 -0.19500047
000040 0d a7 4c 3e 40 a9 ef bd 26 0f 89 3d c8 a9 bf bd
       0.199856 -0.11702204 0.066923425 -0.09358555
000050 7b 8e 72 3c 7f 51 9e be cd 0f a8 3d a8 63 56 3e
       0.014804478 -0.30921552 0.08206139 0.20936453
000060 f1 f5 c2 3c 79 dc 86 be c2 e8 26 3e df 0d bf 3d
       0.023798915 -0.26340082 0.16299728 0.093288176
000070 7f ed 3b 3e d4 b1 87 3e 9b 82 04 3e 8a 6d 49 3c
       0.18352316 0.2650286 0.12940447 0.012294183
000080 4e 49 ec bd 7d 24 06 3e d1 a4 ce bd 80 39 02 be
       -0.11537419 0.13099857 -0.1009003 -0.12717247
000090 66 93 be bd d9 4c 1a be 47 85 33 3e 26 73 a9 bd
       -0.09305458 -0.15068378 0.1753131 -0.08273916
0000a0 e9 fb 44 3e ce a2 4c be d2 0c 5a 3e 03 ea a9 bd
       0.19236721 -0.1998398 0.21293953 -0.08296587
0000b0 10 63 ad bd 85 dd a5 bd 6c ea 01 be 3f 0f 68 3e
       -0.0846616 -0.08098892 -0.12687081 0.22662066
0000c0 06 72 1d be 1b 1f ff bd 34 d7 f2 bd 27 00 10 be
       -0.15375528 -0.12457105 -0.11857453 -0.14062558
0000d0 bc 2c f1 bd 10 72 5a 3e ca 64 24 be ac 13 c8 3d
       -0.117761105 0.21332574 -0.16054073 0.09769377
0000e0 37 03 79 3e 32 f1 1d 3e f4 3e 6b be d0 00 04 3e
       0.24317633 0.1542404 -0.22973233 0.12890935
0000f0 e6 3e 47 bd 66 f4 5a 3e 00 ff 06 3e 63 9a e0 3d
       -0.04864397 0.21382293 0.13183212 0.10966947
000100 69 ae 3e be fd d3 6a bd 99 88 86 be fa 2b 69 3a
       -0.1862122 -0.057331074 -0.2627609 0.00088947976
000110 4a a1 08 be 7c 31 b2 bd 43 3d 01 be 85 1d c7 bd
       -0.13342777 -0.08700845 -0.12621026 -0.09722427
000120 02 dd f5 bd 14 68 03 bd 55 08 c8 3d d9 0d 66 3d
       -0.120050445 -0.03208168 0.09767214 0.05616555
000130 15 af 10 3e fb 28 8e 3d f0 14 b9 3c 88 10 04 be
       0.14129288 0.0694141 0.022592992 -0.12896931
000140 47 33 43 be 7b 69 ae 3d d7 7f f6 bd 3b c8 a3 bc
       -0.1906253 0.085162126 -0.12036102 -0.019992938
000150 3e 8a 11 be c0 a5 36 3d e1 69 b0 bd 32 58 6e 3d
       -0.14212891 0.044591665 -0.08613945 0.05818958
000160 57 46 63 3e 7e 64 8d be 25 2f 4e bd 7a ea 3a 3e
       0.22194801 -0.27615732 -0.05033793 0.18253508
000170 a9 fc 1d be 45 b7 61 be ef ca 79 be 4f 3e 1f 3e
       -0.15428413 -0.22042568 -0.2439382 0.15551113
000180 50 e9 0a 3e bd 27 df 3d 83 18 4e be bf 42 2c 3e
       0.13565564 0.10896251 -0.20126538 0.16822337
000190 65 51 3e bd ff 72 e5 bd 08 6c 23 be da 3a 0a be
       -0.046464343 -0.112035744 -0.1595918 -0.13499013
0001a0 1d b3 91 3d bd 03 8b be 8a b6 07 3e c5 0b 31 3e
       0.07114241 -0.2715129 0.13253227 0.17289646
0001b0 c3 de 26 3e 7a 2a 50 3e 9e d0 57 be ad ea 29 3e
       0.16295914 0.20328704 -0.21075675 0.16593428
0001c0 5d a2 9b 3d 3c cc b4 3c 78 c6 85 be f8 77 82 be
       0.07599328 0.022070043 -0.26127982 -0.25482154
0001d0 13 5c 9f bd 2b 5d 68 be 6e 32 fc bd 99 b3 8b 3d
       -0.07781234 -0.22691791 -0.12314306 0.06821365
0001e0 3f 62 47 bd 62 68 fe bd ad 07 91 3e 40 43 2b 3e
       -0.04867768 -0.12422253 0.2832617 0.16724873
0001f0 de ec ef 3d 3c cc 2b 3c 79 46 b0 bd 59 03 1f 3e
       0.11715101 0.010485705 -0.086071916 0.15528621

bn2.running_mean f4 [128]
000000 80 a5 d1 3c 04 00 00 00 d4 13 8b 3c ca 1c 21 3f
       0.025591612 6e-45 0.016977228 0.62934554
000010 e3 99 10 3d 01 ed 9c 3d 79 04 92 3f 04 00 00 00
       0.035303008 0.076623924 1.1407615 6e-45
000020 4f f7 ad 3d f1 b8 70 3f 06 ac 46 39 25 86 9c 3d
       0.08494436 0.940322 0.00018946835 0.076427735
000030 3e a2 0c 3b 4c 71 c7 3b 73 ad 96 3e 04 00 00 00
       0.0021459009 0.006086504 0.29429206 6e-45
000040 16 b5 bf 3d d0 94 13 10 a5 28 e8 3c 8a 94 d1 3d
       0.09360711 2.910528e-29 0.028339693 0.1023341
000050 c9 fd 76 2a b0 13 d8 3b 8e 1b dc 3e be cb b3 3d
       2.1937239e-13 0.006594144 0.42989773 0.08779095
000060 f5 31 16 3f 72 33 8f 3d c6 aa a3 3d f7 da 75 3e
       0.5866998 0.06992234 0.07991557 0.2400931
000070 f4 4a 90 3e af 6f 8a 3d 1f ab 40 3d 6d fc 23 3c
       0.28182185 0.06759583 0.047038194 0.010008913
000080 04 00 00 00 93 cf a9 3c 04 00 00 00 04 00 00 00
       6e-45 0.020728862 6e-45 6e-45
000090 04 00 00 00 10 05 5b 3e 04 00 00 00 2b a7 5f 3d
       6e-45 0.2138865 6e-45 0.054602783
0000a0 04 00 00 00 d6 da af 3b b6 02 b8 39 04 00 00 00
       6e-45 0.0053666634 0.00035097235 6e-45
0000b0 dc 58 8e 3e 4e 42 06 32 04 00 00 00 7d c7 ea 3d
       0.2780217 7.8149025e-09 6e-45 0.114638306
0000c0 04 00 00 00 04 00 00 00 34 60 75 3c 04 00 00 00
       6e-45 6e-45 0.01497655 6e-45
0000d0 04 00 00 00 04 00 00 00 04 00 00 00 00 6d a6 3d
       6e-45 6e-45 6e-45 0.08126259
0000e0 9d a9 60 3d 6f c0 af 3e 0b 96 e9 3d e3 14 85 3c
       0.054849256 0.34326503 0.114055716 0.016245311
0000f0 04 00 00 00 88 ff 97 3d 82 78 49 3e 82 de 21 3d
       6e-45 0.074217856 0.19674876 0.03951884
000100 04 00 00 00 a1 c4 3f 3e 04 00 00 00 85 cb f3 3d
       6e-45 0.18727352 6e-45 0.11904053
000110 04 00 00 00 04 00 00 00 04 00 00 00 eb 45 30 3d
       6e-45 6e-45 6e-45 0.04303543
000120 04 00 00 00 35 21 30 32 58 69 1a 3d 33 9b be 3e
       6e-45 1.0252099e-08 0.03769812 0.37227783
000130 93 34 af 3e 76 4c 77 3d 04 00 00 00 18 17 9f 3f
       0.34219798 0.060375653 6e-45 1.2428923
000140 fb 38 cc 3c bc ee 53 3e 04 00 00 00 24 ea 4d 3f
       0.024929514 0.20696539 6e-45 0.80435395
000150 04 00 00 00 2b 66 8d 3d 2a 0a 88 3d 35 91 88 3d
       6e-45 0.069042526 0.06642564 0.06668321
000160 8b 62 4c 3d e1 b9 65 3d 24 c2 91 3a 18 d8 e0 3d
       0.049898665 0.05608547 0.001112048 0.109787166
000170 9e 3c 0b 3c 2a 6f 8c 14 76 00 e7 21 23 42 14 3e
       0.008498339 1.4180234e-26 1.5653291e-18 0.14478354
000180 8d 27 7d 3e 11 13 58 3b c8 1f 39 3d e1 ff a7 3e
       0.24722119 0.003297035 0.045196325 0.32812408
000190 ba 4c 59 3d 2c 67 7e 3c 04 00 00 00 04 00 00 00
       0.053051688 0.015527528 6e-45 6e-45
0001a0 c0 ae 9a 3d 04 00 00 00 f6 4b 64 3d 4e 11 c3 3d
       0.07552862 6e-45 0.055736504 0.09524785
0001b0 04 00 00 00 ab dd 9f 3d 9d 14 63 3d 75 02 19 3e
       6e-45 0.07805952 0.05543958 0.14942344
0001c0 9b 17 91 3c e4 af 5c 3c 86 da 11 3d cb 71 be 3e
       0.017711451 0.01346967 0.03560879 0.37196192
0001d0 ac 8f a0 3e 04 00 00 00 ee 23 93 3d 7f 4f dc 3c
       0.31359613 6e-45 0.071845874 0.026893375
0001e0 04 00 00 00 fe cd b3 0a a4 99 c8 3a 8c 39 66 3e
       6e-45 1.7314559e-32 0.0015304578 0.2248289
0001f0 b9 ae d5 3d 48 46 db 3b 76 b2 80 3d 93 1b cb 3e
       0.10433716 0.006691728 0.06284039 0.39669475

bn2.running_var f4 [128]
000000 6d 0a 05 3c 04 00 00 00 fd e7 5c 3c b1 6a 06 3f
       0.0081201615 6e-45 0.013483045 0.5250655
000010 32 09 d4 3c 06 37 93 3c fe a7 8b 3f 04 00 00 00
       0.02588329 0.017970573 1.0910642 6e-45
000020 73 a5 2b 3d ce 13 34 3f 23 b4 4e 38 3f c9 da 3c
       0.04190583 0.7034272 4.9281993e-05 0.02670729
000030 36 b3 a0 3a 88 78 47 3b 77 86 81 3e 04 00 00 00
       0.001226044 0.0030436832 0.252979 6e-45
000040 68 df bb 3c df a2 0f 0d fc aa 11 3d 75 86 b1 3d
       0.022933677 4.4261326e-31 0.035563454 0.08668224
000050 fa 3b 9d 28 05 c6 a4 3b 05 5f 5f 3e 73 64 55 3d
       1.7456512e-14 0.0050284886 0.21813591 0.05209775
000060 1f 42 f4 3e 6f b4 e2 3d 14 ec 0a 3d fb dc 85 3e
       0.47706696 0.11069571 0.033916548 0.26145157
000070 cd 07 7c 3e 9c 8e 8c 3c 7a 10 d9 3c 7f e6 a6 3b
       0.24612351 0.017157845 0.026497114 0.0050933952
000080 04 00 00 00 84 91 bf 3b 04 00 00 00 04 00 00 00
       6e-45 0.0058462042 6e-45 6e-45
000090 04 00 00 00 80 07 06 3e 04 00 00 00 0d ae 98 3d
       6e-45 0.13088799 6e-45 0.074550726
0000a0 04 00 00 00 88 18 85 3b a5 2a 65 38 04 00 00 00
       6e-45 0.0040617622 5.463757e-05 6e-45
0000b0 36 4a 33 3e 62 5a cb 2d 04 00 00 00 60 00 07 3d
       0.17508778 2.3118566e-11 6e-45 0.032959342
0000c0 04 00 00 00 04 00 00 00 5a f7 0d 3c 04 00 00 00
       6e-45 6e-45 0.00866493 6e-45
0000d0 04 00 00 00 04 00 00 00 04 00 00 00 c4 94 12 3d
       6e-45 6e-45 6e-45 0.035786405
0000e0 71 8f 38 3c 67 a8 93 3e eb ef 8d 3d e0 70 de 3b
       0.011264668 0.28839418 0.06930526 0.006788358
0000f0 04 00 00 00 f4 ae a1 3c f3 7f 84 3d a6 96 06 3d
       6e-45 0.019736744 0.06469717 0.032858513
000100 04 00 00 00 16 90 88 3d 04 00 00 00 7d 30 8b 3d
       6e-45 0.06668107 6e-45 0.06796358
000110 04 00 00 00 04 00 00 00 04 00 00 00 3d d4 4e 3d
       6e-45 6e-45 6e-45 0.050495375
000120 04 00 00 00 7f ec f6 2f 7d 34 0c 3d a2 4a 99 3e
       6e-45 4.491518e-10 0.034229744 0.29939753
000130 7b 72 52 3e 3c b5 9a 3c 04 00 00 00 bd c3 80 3f
       0.20551483 0.018885247 6e-45 1.0059735
000140 9a 5e dc 3b 21 30 7f 3d 04 00 00 00 da c3 df 3e
       0.0067251446 0.06230176 6e-45 0.4370411
000150 04 00 00 00 ef b5 d0 3c 53 c1 20 3d 60 12 8d 3c
       6e-45 0.025477378 0.03924687 0.017220676
000160 fe 99 98 3c e4 5e df 3c 67 e5 02 3a 73 ec 8d 3d
       0.018628117 0.027266927 0.000499329 0.06929865
000170 88 67 d5 3b ac 54 6f 11 9f cf 34 1f 5e 2f a4 3d
       0.006512586 1.8879867e-28 3.8288223e-20 0.08016847
000180 1c c3 1f 3e f1 1e 92 3a 60 cb 9c 3c 52 34 b5 3e
       0.15601772 0.0011148137 0.019139946 0.3539148
000190 95 bb f9 3c 48 32 fc 3b 04 00 00 00 04 00 00 00
       0.030484954 0.0076964237 6e-45 6e-45
0001a0 26 8e 9a 3d 04 00 00 00 1d 72 0b 3d 0c 2d 4c 3d
       0.07546644 6e-45 0.034044374 0.049847648
0001b0 04 00 00 00 e7 40 c4 3d bb 1b ca 3d 64 2c af 3d
       6e-45 0.09582692 0.098685704 0.08553389
0001c0 95 f8 90 3c 99 00 85 3b fa 41 84 3c 53 be 97 3e
       0.017696658 0.004058909 0.016144741 0.29637393
0001d0 30 29 8f 3e 04 00 00 00 05 ea 28 3d af 4a ab 3c
       0.2796111 6e-45 0.041238803 0.020909635
0001e0 04 00 00 00 ef 3c fd 07 9d e1 18 3a cd f3 f3 3d
       6e-45 3.8103023e-34 0.0005831959 0.11911736
0001f0 b7 e4 0d 3d 09 6e 5b 3b a2 c7 11 3d 6e aa ca 3e
       0.034641948 0.0033482334 0.035590775 0.39583153
